A2/softmax_best_model.pt (torch, 247478 bytes, 1 tensors)

W f8 [3073, 10]
000000 f2 56 48 37 46 f1 72 bf da fe 2d 23 87 2d 80 3f
       -0.004624628335042168 0.007899337540720298
000010 32 66 a8 cb e0 fa 7f bf 06 6d 39 2d 2f 91 61 bf
       -0.007807615382739596 -0.002144424573811701
000020 bc 6b 4d 02 f6 11 98 bf 74 f4 57 38 e9 91 7a bf
       -0.023506015673188094 -0.006486807838425358
000030 5c 7a 6f 4e c3 ea 7a 3f 4e 3a 85 2a cb f5 37 3f
       0.006571543613033439 0.00036560258970022997
000040 b0 c6 ac 05 d9 7d 89 3f 35 53 14 df 61 6d 83 3f
       0.012447066770252618 0.009485973949759344
000050 b2 22 63 7b 12 48 76 bf 53 29 2e 68 3e 4a 7c 3f
       -0.005439827151527398 0.006906741883435724
000060 ea 8a fa 0e b2 36 74 bf 73 3f 30 12 78 2b 49 3f
       -0.004934974232727577 0.0007681213650147914
000070 09 02 af a2 59 46 95 bf 94 b1 2f 3a 24 63 7e bf
       -0.02077617698137327 -0.007418767464497118
000080 de f8 f7 34 53 e7 81 3f 90 5a d1 53 bd 11 69 bf
       0.008741998723959584 -0.0030602166939773315
000090 57 95 69 1f 5c c4 88 3f 00 b0 98 b6 2a 54 81 3f
       0.01209327669966835 0.008461316773797023
0000a0 da 95 46 c3 d6 db 7b bf 9d 18 ba 2b 71 b6 81 3f
       -0.006801451604052622 0.00864876188940072
0000b0 8f eb a8 ae 64 e6 6e bf 81 2c cb 47 4f f6 6a 3f
       -0.003771969456719266 0.0032912777372522965
0000c0 5f ab a3 54 fd 49 91 bf c7 2a ea 41 f1 b7 72 bf
       -0.016883810320830302 -0.004569952404049621
0000d0 11 a2 8c 7b e8 7e 7b 3f e8 52 ff d1 b8 a5 71 bf
       0.006712825904096068 -0.004308435396485712
0000e0 9d 13 83 b6 d2 32 82 3f 85 d7 90 1f f6 a7 6e 3f
       0.008885999865364808 0.0037421996207979724
0000f0 38 f6 18 de d2 a8 7b bf b9 91 75 84 ee 2f 80 3f
       -0.006752799703063021 0.00790392247899595
000100 b5 26 e1 68 19 8b 6a bf cf 46 47 84 36 2e 77 3f
       -0.003240155819217739 0.00565930648413522
000110 28 c8 4b 2e 1e d7 8d bf 4c c0 52 64 f3 17 58 bf
       -0.014570461070864196 -0.001470554053678813
000120 b8 40 81 f6 3f d5 4e 3f e6 cd 60 fd 9f 7a 72 bf
       0.0009409487074752065 -0.004511475524896258
000130 4b bc 1e f4 0d 8b 85 3f 52 26 b1 90 7d 1d 3d 3f
       0.010519131672337553 0.00044426265293804224
000140 02 6f c3 66 df 7d 73 bf 13 ac 8d 47 fe 8a 80 3f
       -0.004758713399691807 0.008077608641277967
000150 66 21 75 08 73 8a 73 bf da 75 b1 61 a5 a4 82 3f
       -0.004770707462121803 0.009103099864826204
000160 93 fb 6f 2e e4 4a 8a bf 38 02 03 48 ce a1 50 bf
       -0.012838156382711385 -0.0010151400056629522
000170 6b 73 17 cc 36 e0 61 bf 66 45 e3 89 84 3b 74 bf
       -0.002182108903737425 -0.004939573029518618
000180 95 af 7d bf b0 a6 83 3f 9e 75 31 5c d4 38 5e bf
       0.00959528049835238 -0.0018446039037124172
000190 bb fd e9 cd 45 c9 74 bf 6b ff ae e3 a4 81 7e 3f
       -0.005074761079071728 0.00744785699765758
0001a0 77 71 05 12 95 9c 6a bf 6a 86 c1 63 b9 5d 83 3f
       -0.0032484923869288656 0.00945610843354246
0001b0 7b d9 1e cb 40 c3 8c bf 01 22 fc a1 e1 9b 63 bf
       -0.01404429073214141 -0.002393665970775283
0001c0 17 65 15 e5 b0 20 f3 3e 1f ee b3 6e d0 13 71 bf
       1.824159546024326e-05 -0.004169286908332319
0001d0 07 34 68 92 e9 9a 81 3f 45 4c 69 59 c0 b4 69 bf
       0.00859625318573799 -0.0031379467793981896
0001e0 d2 82 e3 b4 4f 0f 76 bf 76 33 a5 50 ce 0d 7f 3f
       -0.005385695794956917 0.007581525724458573
0001f0 ea e5 71 6f dc ff 5c bf c5 96 f5 d6 15 0f 7d 3f
       -0.0017699864090715508 0.0070944645989123355
000200 f1 29 6d 92 5a a4 8d bf d6 d8 b6 d1 e3 74 66 bf
       -0.01447363623960471 -0.002741284331672404
000210 22 87 fd bb 3d 78 44 3f c1 18 e8 25 7a 1b 55 bf
       0.0006246854245370618 -0.0012882893421433536
000220 7b 4e 7f b7 24 c2 81 3f bf 3b 8e c2 15 46 6a bf
       0.008671080446141169 -0.0032072472572006456
000230 98 7b d7 c7 76 83 76 bf 54 d3 25 21 d2 2e 82 3f
       -0.005496467577784346 0.008878366123761396
000240 9f aa d4 4c b2 3e 51 bf 6d 07 a1 00 14 10 7f 3f
       -0.0010525456630811403 0.0075836926790219085
000250 b3 73 d3 35 48 ad 8e bf 31 aa 39 97 04 1f 74 bf
       -0.014978946821821859 -0.004912393505586852
000260 80 7c e2 13 b6 08 72 3f af fc 79 3e 76 81 65 bf
       0.004402838936726217 -0.002625208802612265
000270 08 4f 5f 75 05 3e 80 3f e0 ea fe 7e 6f 1f 73 bf
       0.00793079628412087 -0.004668651134063423
000280 a1 c9 5c 5e 05 f9 79 bf 78 ac c1 8e 1c b2 82 3f
       -0.006341000529391045 0.009128783327659415
000290 8d d0 23 e6 16 49 70 bf 43 1a d0 d1 2c 96 7b 3f
       -0.003975953530460552 0.006735014988413615
0002a0 2f d0 2e 2c 0f 15 8b bf cf b2 99 8d f5 10 7b bf
       -0.013223761115888603 -0.006607970420742417
0002b0 4c 82 0f 04 43 d7 82 3f 32 66 b9 d5 f7 b7 6a bf
       0.00919964176313317 -0.003261550953351366
0002c0 9b 6d 6d 59 bd 04 75 3f 56 13 e3 b2 9a 4a 5f bf
       0.00513147320347276 -0.0019098768930671715
0002d0 8f dd b2 6c a4 01 79 bf ac 36 70 6a 6f f3 83 3f
       -0.006105081828699523 0.00974165957998293
0002e0 f0 45 e5 b5 c9 0c 72 bf 19 1c 7b bf 0a e4 7a 3f
       -0.004406726772076194 0.006565134033457398
0002f0 cd 24 45 f7 e4 b9 85 bf 2e ee 2b 0b 55 20 6d bf
       -0.010608471675953269 -0.003555456257684295
000300 14 10 ea 8a 7b 42 7e 3f 7c 0d cc 4b 75 86 67 bf
       0.007387621487058755 -0.0028717318476780256
000310 f6 37 0d e2 95 cd 67 3f e0 89 ef 0b 00 7f 6c bf
       0.002905647983800992 -0.0034785271559354264
000320 73 bb f2 75 a8 b1 76 bf 6c ca 87 68 7b c0 81 3f
       -0.005540521669145859 0.008667911651149406
000330 5a 96 90 4d 7d ab 70 bf 41 33 f1 33 30 38 79 3f
       -0.004069795098109086 0.006157100956511397
000340 46 06 ff ae b1 02 81 bf 52 c6 40 ab b3 94 5c 3f
       -0.00830591979309071 0.0017444376544627671
000350 ba 78 b5 01 eb f4 77 3f c9 b9 82 91 22 28 78 bf
       0.005848806376290644 -0.005897650749985003
000360 65 cb 4f c0 c6 64 72 3f fe a6 68 bf c4 7e 77 bf
       0.004490639087623237 -0.00573613028113029
000370 e0 c6 14 1b a9 58 72 bf 26 e8 14 fc b8 f8 82 3f
       -0.004479084557986929 0.00926346320430944
000380 f8 d0 0c fd 18 52 52 bf 7e cc 10 9d 2c 25 83 3f
       -0.0011182064083188874 0.009348248046171511
000390 62 b8 bd 95 c9 9f 7f bf e8 65 8c 07 c3 2c 01 3f
       -0.007720744553678301 3.2758428409173344e-05
0003a0 b5 26 ad 1c 6f 69 74 3f 85 8e 60 16 f8 b6 81 bf
       0.004983362227741918 -0.00864976709642141
0003b0 b3 d4 fd 5e de 74 71 3f cf bb 18 42 d5 ec 7b bf
       0.004261845242458029 -0.006817658462337796
0003c0 d2 fa 02 ef ac c5 76 bf b6 86 3c 74 92 4b 8a 3f
       -0.005559611818340486 0.012839454815153455
0003d0 e4 26 8b ec c9 10 69 bf d3 35 37 1d c3 88 8a 3f
       -0.0030597633197871777 0.012956165627566662
0003e0 6d 64 17 14 c8 0c 80 bf 55 25 26 83 6a c4 70 bf
       -0.00783687888444914 -0.004093566955256496
0003f0 10 ef d0 8d 5f f0 77 3f 88 e2 16 70 46 53 83 bf
       0.005844472177212415 -0.009436178489395944
000400 f3 de 8b c9 3f a3 6b 3f 6f 29 f9 6f 22 9f 76 bf
       0.0033737417073743613 -0.005522856255604543
000410 2a 0a de bc 5b ba 79 bf f4 02 c2 2d 71 55 88 3f
       -0.006281240797650281 0.011881717881125443
000420 5f 4f da f9 a1 5c 3f 3f 74 9c 2c f5 da 78 8a 3f
       0.00047854380123023803 0.012925825698017791
000430 56 19 44 d8 5e a2 82 bf da aa 8e 8f 54 58 7b bf
       -0.009098759627261071 -0.006676035228262401
000440 c1 2e 38 7d 95 89 78 3f 87 0d cb 83 f2 51 89 bf
       0.0059905852717851435 -0.012363333365448493
000450 af 05 40 be c3 d4 69 3f 92 e5 3c 54 4e 2b 54 3f
       0.0031532118900947296 0.001231028073517802
000460 5b b3 5c 4b 01 1f 7b bf ba 5e 71 90 80 a8 83 3f
       -0.006621365600761954 0.009598736198469172
000470 fb 45 d7 b6 11 94 60 3f 1e c5 96 2f cb e3 86 3f
       0.002023729894724322 0.011176669492530208
000480 f0 c9 5a 0c 43 31 7a bf de f5 95 23 9e 9b 75 bf
       -0.006394636065737633 -0.005275361757751422
000490 9c f0 11 a5 22 48 5f 3f 7f dc 73 5d 20 3a 8a bf
       0.0019092882469342936 -0.012806179859110365
0004a0 10 88 da 80 75 2c 5c 3f e4 fe 27 f7 28 9c 73 3f
       0.0017195842259885054 0.004787597676567865
0004b0 49 d5 a1 38 da ca 7e bf 16 77 ce 42 6c b4 82 3f
       -0.007517673899305529 0.009133191860935901
0004c0 8b 80 cd a7 dd e9 64 3f 47 7f 82 9a 44 80 89 3f
       0.0025529221733649513 0.012451683011306293
0004d0 10 97 18 63 8e b0 6e bf ca af ce 99 dc 60 60 bf
       -0.003746297931473637 -0.0019993122682162344
0004e0 0a 27 8a 8a f7 a6 24 3f 53 1c 39 80 eb 28 8c bf
       0.00015756389372639123 -0.013749923563535804
0004f0 2a a7 95 cf 2c bb 48 3f 02 5e 89 26 f6 5e 5e 3f
       0.0007547348788367926 0.0018536952794842025
000500 bc 20 1c 83 4c 65 7f bf 99 aa d5 88 45 07 80 3f
       -0.0076649655109194935 0.007826369512902874
000510 94 d7 85 ad 15 46 55 bf d3 c6 ea 91 a1 3b 89 3f
       -0.0012984477708335206 0.012320768609558474
000520 d9 f0 8a f5 9d e5 74 bf d1 c6 a9 31 65 ea 5b bf
       -0.0051017923621509914 -0.0017038334105134343
000530 cc 0b 02 55 2a 6e 69 3f 89 32 de 18 7a 97 88 bf
       0.003104288749513162 -0.012007669338140363
000540 84 a7 ef b0 4b b1 5a 3f 7b 1f 28 a3 1a a9 5f 3f
       0.001629184643884036 0.0019324073915658313
000550 da 00 a1 a5 92 cf 7c bf a0 79 48 b1 09 d6 7f 3f
       -0.007033894386097661 0.007772481786132351
000560 e5 44 2c 98 2f b2 70 bf 93 30 d9 4d 3d 08 84 3f
       -0.004076181331371863 0.009781340540165473
000570 22 b5 cd b1 43 ac 78 bf 8b 83 de 1a 92 5b 53 bf
       -0.006023659164253988 -0.0011815001302936969
000580 15 3c f8 23 90 ee 5c 3f 12 ba 50 04 7a 17 83 bf
       0.001765862238133802 -0.009322121864980413
000590 5b b7 e0 ce 23 20 5b 3f e2 72 38 a2 6a c1 70 3f
       0.0016556119621884055 0.004090706384457051
0005a0 14 1a d9 0e dd fe 7b bf 13 8d 07 f3 13 82 77 3f
       -0.006834853656590773 0.0057392863531931125
0005b0 93 51 1e 3e 19 a8 7a bf 13 96 d9 30 08 eb 86 3f
       -0.006507967571355871 0.011190475455076265
0005c0 66 41 8c 86 17 e3 74 bf 62 16 22 bd 28 4b 5c bf
       -0.005099384209430324 -0.001726903709398008
0005d0 81 a7 0b e5 88 bd 62 3f a9 6e 86 66 f0 39 7a bf
       0.002287642834166215 -0.00640291124764373
0005e0 9b ec c7 0c 50 14 26 bf de 65 43 73 0a 0f 6b 3f
       -0.00016845204517310506 0.003303070459975229
0005f0 5c 86 be de be 5b 7b bf 94 ba 84 66 e4 3e 7e 3f
       -0.006679292284304941 0.00738419741564535
000600 82 be 3e 8f c4 f1 77 bf 54 bc 37 42 8c 0a 7d 3f
       -0.005845802126642876 0.0070901373724004575
000610 b6 0d f1 d7 78 09 7b bf 6f c4 d7 4d 03 46 51 3f
       -0.006600830121047554 0.0010542900339454394
000620 cf 10 bb 8c 58 6e 68 3f e2 70 f7 22 79 0e 76 bf
       0.002982304524126268 -0.005384896459386309
000630 ab 7c fd b5 7e 77 54 bf 58 a7 7a 1c f1 c4 60 3f
       -0.0012491929446339183 0.002047034187701618
000640 a0 d2 a9 e1 75 9e 78 bf 7d 92 f5 52 73 eb 84 3f
       -0.00601049468479134 0.01021471115991201
000650 bb 40 7c 8b 41 84 75 bf e4 21 5c e6 aa f8 6f 3f
       -0.005253082308414199 0.0039027536284985554
000660 88 09 14 ed 09 ea 82 bf 53 9d a7 8a 2c a5 70 3f
       -0.009235456035189285 0.004063772192672249
000670 c9 1c c5 de 07 3f 63 3f fc fb ea 7c 06 34 81 bf
       0.0023493913378477044 -0.008400011717979432
000680 ba e9 4c 50 56 ee 45 3f 4c 32 48 ac 07 b5 62 3f
       0.0006692811444744464 0.002283587442667467
000690 8a 8d bf 55 10 f0 7c bf 9f 98 72 0a 6b 45 83 3f
       -0.007064880188383591 0.009409748321854315
0006a0 91 cf f1 4f 34 38 7b bf a0 54 fd e7 64 ec 6c 3f
       -0.006645397515160926 0.0035306902717971572
0006b0 54 51 ea 64 d0 b1 81 bf 8e 4e 61 9c df 7e 78 3f
       -0.008639934615793855 0.005980370979233774
0006c0 70 56 0c f0 c6 65 47 bf 8c 9a 41 46 f1 0a 7d bf
       -0.0007140370726996369 -0.007090513685489196
0006d0 b4 c2 ae 7b 9d 3b 6d 3f 3e 6c 0b e8 33 6b 66 3f
       0.003568465790032194 0.0027366651341771677
0006e0 ef 43 b8 7c 8c e9 7e bf 7e 98 f7 7d 80 f1 82 3f
       -0.007546948221276203 0.009249690860951395
0006f0 03 46 4e dd 9c ca 80 bf 96 96 cc 45 d2 bf 83 3f
       -0.00819895315524644 0.009643213992215832
000700 f4 be f0 ae 2e fd 79 bf 6f cf 1d 7d 30 4e 6c 3f
       -0.006344969136122581 0.003455252365648968
000710 f9 67 c8 d6 62 8e 5a bf ca bf 74 35 d6 32 78 bf
       -0.0016208615517201415 -0.005907856705832113
000720 6b f4 b3 2f 86 b2 60 3f 33 33 94 ea 48 77 6a 3f
       0.002038251955694783 0.0032307075640630955
000730 b5 7e af af cc ee 7c bf 50 03 ee 35 ef b4 89 3f
       -0.007063674503086472 0.012552136262230867
000740 1f 8e 7e f9 82 d3 84 bf 0a 26 ea 4d f3 d8 85 3f
       -0.010169051398242477 0.01066770631338711
000750 ec e2 56 f9 51 7b 81 bf e8 f9 42 d7 3d dc 46 bf
       -0.008535995885595914 -0.0006976415593483139
000760 f3 d1 5c 63 e0 50 58 bf 85 68 07 89 b4 13 69 bf
       -0.001484126214063794 -0.00306115399164947
000770 ee 7b 0d 4c b0 9e 44 3f 29 ca 36 c3 35 11 54 3f
       0.0006292687249745946 0.0012248063111256569
000780 69 d2 24 c0 a6 0d 78 bf 5c 9e 49 b3 3b e3 81 3f
       -0.005872393960363633 0.008734194191858773
000790 7d a0 b8 c5 5b 66 80 bf 90 65 4b 0d 00 a8 84 3f
       -0.008007733317825444 0.010086059957233912
0007a0 35 61 b0 a7 f9 90 86 bf 51 12 ea f6 48 b2 54 bf
       -0.011018705778085372 -0.0012632095855745938
0007b0 88 af db 10 bb 34 5f bf b9 b9 08 5c 0d 3e 5d bf
       -0.0019046618285143164 -0.0017848139251658136
0007c0 9a ef 33 2d 84 3f 66 3f b0 50 4a 6d c3 08 66 3f
       0.0027158338140206963 0.0026897255832612696
0007d0 1c 4d 50 3e fb a9 76 bf 98 0a ae d6 17 28 77 3f
       -0.00553320066412091 0.005653470153336081
0007e0 0b f8 71 98 b3 22 80 bf cd b2 7d ed 67 f1 84 3f
       -0.00787868794418147 0.010226070342207372
0007f0 52 c5 34 31 4c 2b 86 bf c9 f7 bf f7 18 a2 5d bf
       -0.01082477116742334 -0.0018086665941150373
