A2/svm_best_model.pt (torch, 247450 bytes, 1 tensors)

W f8 [3073, 10]
00000000: 6a7d 1a1c 5a3f 45bf a933 cd39 b66e 823f
00000010: e961 8f7f ce5d 7bbf a637 ab63 5d34 70bf
00000020: 9418 5714 b5e6 92bf cc70 7ff1 00b6 81bf
00000030: 0ed0 ab6f 8c23 753f 54e8 177d 4f76 26bf
00000040: aacf 948b bd40 873f 2399 1b23 1530 853f
00000050: 82fb 021f 65de 5abf abed 9747 b1ae 7f3f
00000060: 9b31 daac b759 70bf cbbf 2cff d997 5bbf
00000070: cd06 ff6c c8fa 90bf 3e2b 545b 9f52 84bf
00000080: d6c4 0030 12b6 7d3f 98d5 3661 0808 64bf
00000090: eb83 9674 92a4 853f 8cc4 4f0f 5a24 833f
000000a0: 8fbe f6cc db5a 6bbf c1ea 9828 1d6a 7f3f
000000b0: f3dd 1712 7513 65bf b17a c864 ee76 543f
000000c0: 023b c633 c86f 8cbf 7dc5 e7ac 9a29 7abf
000000d0: 6d28 7ce1 ffe0 763f b087 9054 ab33 6cbf
000000e0: 19b4 1ea1 b831 7f3f db69 0b89 8fa2 753f
000000f0: f8ed 59de 22cb 6bbf e9d6 3eee 0595 753f
00000100: c4f6 3eb3 4fc3 51bf 6dc0 9cfb b2f4 6a3f
00000110: 9d5f 56fd 0b62 89bf df00 382a f047 64bf
00000120: 9934 b047 bf1c 593f 7244 ab70 91ee 6fbf
00000130: 6cde 99bc 1341 823f f48a 1939 6653 613f
00000140: 386a beef 7145 54bf dac7 f5c9 d66d 773f
00000150: 60ff 7d7b a7b9 63bf a9f6 4f70 baef 7a3f
00000160: 6aad e808 602e 89bf d9ed 9a2f e611 62bf
00000170: fa47 a426 4986 4ebf 8830 6d0b d63d 73bf
00000180: 793e 1e5d 41b9 803f e03f 0518 3018 37bf
00000190: ffef 82d8 8111 56bf 0bb5 cc96 e333 783f
000001a0: 9c6a 6bfd 4859 5dbf 03fe 5714 863c 7d3f
000001b0: 519d ae8e 4d8f 8cbf 4a0d dbb4 b826 62bf
000001c0: a745 0f93 9a01 503f 6a47 c9f8 6b30 72bf
000001d0: febb cea7 f7d4 7d3f 462c 9870 2a4a 6cbf
000001e0: 9442 e09a b96d 60bf cf27 3e3b 4c28 7a3f
000001f0: ba41 926a bc90 50bf 03a1 5268 2bce 743f
00000200: 60e7 6e8a 6a43 8abf a717 e960 1814 59bf
00000210: ef0e d36c 58a7 413f d91a fb44 06a7 5bbf
00000220: 4238 d3a8 0483 7d3f aa1d bafc 37b4 6fbf
00000230: c45a 5903 15ca 61bf 3e9f e1c8 b828 7d3f
00000240: a846 e35a faa0 51bf 5aed 6ac8 25e8 753f
00000250: 4b6a 6d16 1100 89bf d407 36ef 4dcd 6bbf
00000260: 8a23 a3db cd68 6c3f 3cc6 8b03 153b 64bf
00000270: 21b4 afd5 14cf 7b3f 2fdd cc89 141b 72bf
00000280: 6c70 674b 99ac 66bf dc10 12d9 ad97 803f
00000290: 3238 0913 4ca3 70bf 8e61 19fc 8359 743f
000002a0: 13fc ec23 da1f 87bf 203f 0803 08b0 70bf
000002b0: cc2d efdb 6af6 803f dbe4 a375 fa71 6bbf
000002c0: 82a3 e873 af01 6f3f 08e0 bf8d 77cb 68bf
000002d0: daaf dabd 3812 67bf 791d 3f7b 1d1b 823f
000002e0: 4c51 40a9 beff 71bf 30a3 086c eda3 743f
000002f0: 53f3 ef94 9c6c 80bf 375b 7106 11c5 5bbf
00000300: 685d 12e5 49b5 7a3f 7750 e283 1c0a 69bf
00000310: 079f 10df 10b4 593f 556a 7fb1 2d3e 74bf
00000320: a8f2 cc19 9aa9 63bf 3d0b 647c 3817 803f
00000330: 207a e4ed f57c 70bf 81af dbc5 ad3d 723f
00000340: 5ff8 cc85 5bdc 79bf c3ba 1715 ca16 673f
00000350: bb1a 9f7c 90a8 743f 3481 c911 54f9 74bf
00000360: 6aab f006 3860 673f 37ec 9436 1341 7abf
00000370: 6043 ee99 b74d 56bf 8c50 d625 ebe1 813f
00000380: 2499 bec2 e1cb 57bf ff0d 194f 1ea4 803f
00000390: 3f44 94c8 96d3 7abf e212 db60 c53f 30bf
000003a0: 7da2 5ef0 4e84 743f 9023 729b 3db5 7cbf
000003b0: 4e84 55b2 b5e5 623f a1a0 124f fed6 80bf
000003c0: b5bb e145 9d63 5dbf 45ee bb61 9f4c 873f
000003d0: ff0e 0929 a22c 67bf 637b 5a05 6543 873f
000003e0: 40f3 ca32 d184 7dbf 9039 3d53 a51d 72bf
000003f0: b8d6 0383 7592 793f 8069 3efc ad55 7ebf
00000400: cca5 1500 3baf 5a3f 4e3f f496 bf2b 7cbf
00000410: 9200 0d02 8ed7 65bf e42b 25ee 80ca 863f
00000420: 00a5 91d2 1091 2f3f 3a94 cfb3 30de 843f
00000430: ca1b eb4c 70c8 80bf 9036 63fc abf0 79bf
00000440: 1013 aa80 88e1 7d3f b5df 9386 3c8f 84bf
00000450: 60e0 03e4 67c7 603f 14be dc60 1f2c 62bf
00000460: 4fcc d008 c2a9 6cbf bbfb 4edc 1daa 833f
00000470: 6595 e7b7 c68d 533f 0c37 81bf 70dc 823f
00000480: 1a57 28cf aec3 73bf 4921 5e10 d8be 75bf
00000490: 1add 5d5e fc42 603f 359e 7fa0 92ad 85bf
000004a0: 7163 75e3 6a09 533f 96d6 129f b6bd 4a3f
000004b0: 9310 a38c 78d5 73bf 4d75 0a7e a982 823f
000004c0: 819f 2790 b4cc 583f ccc7 74fc 9a99 863f
000004d0: 59cf 0ca3 f3c9 64bf 5944 dd1a 766c 54bf
000004e0: 1aea 3017 b3f1 293f c303 1ff9 6661 88bf
000004f0: 64f0 fa0d 64a2 41bf e016 045b aa26 4abf
00000500: e1de c0bc 65b8 76bf 546a d4d5 2642 813f
00000510: dae9 94c6 13de 5bbf 804a bcfe 1f14 863f
00000520: 329f 086e f796 75bf a700 f372 82ad 52bf
00000530: 5638 23f4 8052 6b3f 7703 9375 9957 85bf
00000540: 823d 9230 ef9f 373f 44de 7781 bf9b 31bf
00000550: a62d c673 c154 74bf 16c4 efdf 1241 813f
00000560: a573 b3cc 6c95 6fbf 717e df39 025a 813f
00000570: 5c09 79c8 4133 78bf a460 e51e ea9f 4dbf
00000580: 49e9 9804 d900 623f 3422 4634 365a 80bf
00000590: 131a ae89 c49b 313f 5a2d 10bb 10f6 613f
000005a0: a6a9 7e83 5325 74bf 8579 a319 b532 773f
000005b0: 7fb0 4bac 33a6 77bf a47d 97d1 fc5c 853f
000005c0: daa2 9af2 b794 74bf eaf6 0f98 2115 4ebf
000005d0: 12c1 b10a cf10 653f 9b9b 9805 e239 75bf
000005e0: 5561 75a9 3176 5abf 6cfc e473 12ea 4e3f
000005f0: e8d0 ddb5 5e1e 76bf 7b24 cfd4 86ff 763f
00000600: 2c4c 510e db4d 76bf 7801 27fd 368b 7a3f
00000610: 2607 868f cb2b 78bf 2583 f306 2292 5d3f
00000620: 24e5 cbdd 0556 6b3f 1ec0 3760 dfe4 70bf
00000630: bade 1c1b 3dff 5bbf fa67 7adb ff06 413f
00000640: a6dd 2810 ed92 74bf 839b 3a29 d5d1 7c3f
00000650: de38 8c13 9c09 76bf 852a 5424 d4a2 683f
00000660: 64cc 48d4 ab13 7cbf 914b bcff 720e 773f
00000670: ab92 4657 69c0 6d3f e01e 7ab8 247b 79bf
00000680: 097e 35c6 1eee 4f3f 4eda a024 a61a 373f
00000690: 5d71 c192 b38a 77bf 3132 0b40 86df 7c3f
000006a0: 4a77 0be0 3eca 7bbf a1aa 698a d4da 633f
000006b0: 1f4a 9f5a c86d 7bbf 8bbe 1d52 cb30 803f
000006c0: 1c1a 004c 949d 423f dbbf 7133 aef8 72bf
000006d0: d40f a589 36b9 6e3f eca7 6eda ca16 14bf
000006e0: 9cc1 d489 796f 79bf 2843 238d b999 7e3f
000006f0: e1aa 248a 8697 80bf 7496 cc80 b824 7d3f
00000700: bada e411 d273 79bf 125f bc7a 9271 7a3f
00000710: 901b d822 4870 ef3e be36 0f63 f65d 6bbf
00000720: f37a 5df0 5d80 5d3f b3d2 9f25 5c4e 32bf
00000730: 8770 9ed1 ceb4 76bf af2b cb47 9b5b 853f
00000740: ef8a 29ef c9ca 84bf b99b a8c8 7ef6 7f3f
00000750: e2c9 0c89 e656 81bf d307 968d c38b 623f
00000760: 43e7 10a2 7941 41bf 41d5 c66b 416e 59bf
00000770: 99a3 bac8 bee9 533f a243 ce6b 0012 42bf
00000780: ba30 9260 478d 71bf 1db0 b49e 8873 7a3f
00000790: 7962 5375 507b 80bf 48b0 1a4b ff32 7f3f
000007a0: 6a4c 281c 3131 85bf c26f f8d0 c114 503f
000007b0: 6d35 b8f7 f365 47bf 7619 db20 bbd0 0ebf
000007c0: 093e b542 732a 633f aa5f bc00 d246 503f
000007d0: e494 6008 7727 71bf 3665 d5e0 2c4c 723f
000007e0: 4f6b b986 c79d 7fbf 16c1 e146 9daa 823f
000007f0: 89c2 d4a6 5192 87bf a8d1 a1fb 9019 363f
-0.0006484212865024823 0.009000228537525095 -0.006681257852470848 -0.003956188966823071 -0.018458203665226394 -0.008647925729683335 0.005160854891745016 -0.00017137260742555954
0.011353951284583125 0.010345616468339152 -0.0016399371634603093 0.007734959124259626 -0.003991811257617074 -0.0016841534495135476 -0.016581660893058726 -0.009923214888223005
0.007253714604346947 -0.0024452365557531934 0.010567802603704343 0.009346679298660975 -0.003339223192334213 0.0076695574767266525 -0.002572754529633897 0.0012490585387536053
-0.013885082321193124 -0.00638733310778272 0.0055856700271395944 -0.003442606572677108 0.007615777214522467 0.005281983075031661 -0.0033927613283688506 0.0052690726915238595
-0.001084163505751177 0.003290509773158637 -0.012394040745490826 -0.0024757090302501695 0.0015327327698771208 -0.0038979378344739463 0.008913187211177141 0.0021149632018916346
-0.001237260118591833 0.005719985026518127 -0.0024078627720313522 0.006576278949976513 -0.012295484802129681 -0.0022058006114471338 -0.0009315354521126633 -0.004697643386702428
0.008165846494903694 -0.0003523938576295276 -0.0013469474816210079 0.005908860225458011 -0.001791306761950529 0.007137798068924453 -0.013945203701793448 -0.0022157294796173775
0.0009769448772555063 -0.004440709843565796 0.007283179668703175 -0.003453333750035567 -0.0020054459664680755 0.006386087206815063 -0.0010110702517388396 0.005079431114758617
-0.012823898648878618 -0.0015306699821322296 0.0005387479556237788 -0.0016877709603463824 0.007205026818338624 -0.0038701146602908203 -0.002171555558372647 0.007118913474279341
-0.0010759777901977827 0.005348346318608444 -0.012207158562593487 -0.0033937952190976426 0.003467943254780119 -0.002469578783682617 0.006789285073847602 -0.004420356967606494
-0.0027678483995555083 0.008101804911583015 -0.00406198231264736 0.004968181195714639 -0.01129122182976342 -0.004074126526134397 0.008282503926145511 -0.0033502475536094484
0.0037849833309064338 -0.0030267081292514354 -0.0028163059458474584 0.008840780566869754 -0.0043942878437700054 0.005039145879472781 -0.00801966027756299 -0.0016949335347555391
0.006520546580893828 -0.003056579297728897 0.0015688099631549505 -0.004942110528612338 -0.002400208452313219 0.007856789871316766 -0.004025421773148824 0.004453352737737394
-0.006313664923082467 0.0028184840127701573 0.005043568040440756 -0.005120590588007002 0.0028534979133118437 -0.006409716655350776 -0.001361302660118656 0.00873168668002957
-0.0014524178213633577 0.00812553099525015 -0.006549443243117513 -0.00024794167334744714 0.005008991580247921 -0.007008782056012644 0.002306799770551516 -0.008222567356213796
-0.0017937694424536692 0.011376614732845467 -0.0028289000695468354 0.01135901377284449 -0.007206742459570148 -0.004422803689364221 0.006243189840679335 -0.00740592921274652
0.0016286922621823073 -0.00687765922272361 -0.0026662610620463234 0.011128432529082084 0.0002408345256157754 0.01018941925753768 -0.008194806430209218 -0.006333038158300788
0.00729516335798476 -0.010038826806052595 0.0020482091059613045 -0.0022183049067263736 -0.003498915647037338 0.0096018154962375 0.0011934700593142164 0.00920951923776727
-0.004825289581750681 -0.005308956146002971 0.0019850663256267944 -0.010584970019365073 0.0011619132836442026 0.0008160726266825565 -0.004842253585767636 0.009038280638658103
0.0015136493026321753 0.011035166577673915 -0.002537704327915263 -0.0012465623253386153 0.0001979380718653702 -0.011904530026983445 -0.0005381573245908486 -0.0007980663122288643
-0.005546948825262383 0.008426955605093024 -0.0017008965608754562 0.0107805728544339 -0.0052709260203654285 -0.0011400007168021282 0.00333523927938643 -0.010420988941747684
0.00036048497765591586 -0.00026868272240629745 -0.004963641808341112 0.008424899538995983 -0.003855431079144061 0.008472459212440971 -0.005908257451269296 -0.0009040730636043115
0.0021976698524472133 -0.00798456522967781 0.0002686838940281499 0.0021925284168042127 -0.004918409562302639 0.005663592741454675 -0.005773736808560525 0.010431265970452248
-0.005024641557306276 -0.0009180463822528716 0.0025714916023887946 -0.005182154558076936 -0.001615093706126632 0.0009434309102188793 -0.005400056803285681 0.005614782986364304
-0.005445342719286688 0.006480421829508358 -0.00590114131807854 0.0018048603340547556 0.0033369173601128944 -0.0041245198840300906 -0.0017088028657336455 0.0005196332267189956
-0.005022932079149644 0.007036049518922452 -0.005380258248591311 0.0030073302647271615 -0.006854697425796894 0.005629014219965437 0.0036317880096297848 -0.006220954360862868
0.0009744310631666929 0.00035254055240177974 -0.005747510393203062 0.007049106993417585 -0.006784673315193343 0.002423682325845292 -0.006696493752274906 0.00790556759213181
0.0005681013208239136 -0.004631691429594266 0.003750425833603169 -7.663357847201264e-05 -0.006209826239953389 0.00747082215293985 -0.00810151204185189 0.007115097728080156
-0.006213970742740821 0.006455967126178812 1.4991093020289855e-05 -0.0033407032246718085 0.0018006245968177875 -0.0002793288200558061 -0.005543525587111137 0.01042863190504825
-0.010152413951066445 0.007803435563380861 -0.008466530854637836 0.002263910235968483 -0.000526604071757954 -0.0015521658780078414 0.001215397179217903 -0.0005514623695593755
-0.004285124604518293 0.006457837745340836 -0.008047703342911593 0.007616994132757134 -0.010347732230945723 0.0009815113770690197 -0.0007140580414117089 -5.877562590010908e-05
0.002339577787701112 0.0009934473809547297 -0.004188027354790711 0.00446717768257914 -0.0077188295359416756 0.00911448357166526 -0.011509550002842832 0.00033721723196513754
