A3/one_minute_deepconvnet.pth (torch, 145981 bytes, 16 tensors)

W1 f4 [4, 3, 3, 3]
0	0x3eb8d9f4	0.36103785
1	0x3e910e1f	0.28331086
2	0x3e010836	0.12600788
3	0x3ea9d36b	0.33169112
4	0xbed90d82	-0.42393118
5	0xbf03386c	-0.5125797
6	0xbe17f855	-0.14840825
7	0xbdd432e4	-0.10361269
8	0xba06e047	-0.0005145114
9	0x3c811f5b	0.015762022
10	0xbe0ce6ef	-0.13759969
11	0xbeb04e3d	-0.3443469
12	0x3d27db8a	0.040980853
13	0xbcf130af	-0.02944216
14	0xbee86dd1	-0.45396283
15	0xbd85abdd	-0.06526921
16	0xbe5f8254	-0.2182706
17	0x3dd5abfc	0.10433194
18	0xbea87671	-0.32902864
19	0x3d6d2ba7	0.05790296
20	0xbe85a19d	-0.26099864
21	0x3d8e9da1	0.06963659
22	0x3dac501f	0.084137194
23	0xbd6348dd	-0.05548941
24	0x3eec8bb3	0.46200332
25	0x3dc6bff5	0.09704582
26	0x3dbc3f4a	0.09191759
27	0xbe6aefef	-0.2294309
28	0x3dd4522f	0.10367238
29	0xbeea5e60	-0.45775127
30	0xbe65c1ed	-0.22437258
31	0xbc41b41d	-0.0118227275
32	0xbed56326	-0.41677207
33	0x3e400d08	0.18754971
34	0xbcd4beaf	-0.025969831
35	0x3e4a5c04	0.19761664
36	0x3f1447ae	0.57921875
37	0x3f2fe8a4	0.68714356
38	0xbe59f06e	-0.21283123
39	0xbec53880	-0.3851967
40	0x3e78e2a7	0.24305211
41	0x3d81bd8e	0.06334983
42	0x3e295da4	0.16539627
43	0xbc35145b	-0.011052216
44	0x3e79ba4a	0.2438747
45	0x3ee32559	0.44364432
46	0x3f078c4b	0.52948445
47	0xbf1101a1	-0.5664311
48	0xbe4f15df	-0.20223187
49	0xbe534ee0	-0.20635557
50	0xbdea71ab	-0.11447462
51	0xbe33a871	-0.17544724
52	0xbe8203e2	-0.25393587
53	0x3d8f4c19	0.06996936
54	0x3e253708	0.16134274
55	0x3f56c412	0.8389293
56	0x3d692f58	0.056929916
57	0xbe188723	-0.148953
58	0x3d43c7c3	0.04779793
59	0x3e4bb661	0.19893791
60	0xbe497941	-0.19675161
61	0x3e42e278	0.19031703
62	0xbe6cd9bf	-0.23129939
63	0xbec44d59	-0.38340262
64	0x3f70806f	0.93945974
65	0xbea3d13f	-0.3199558
66	0xbe217bbb	-0.15769856
67	0xbe453c0d	-0.19261189
68	0xbeb8d31c	-0.36098564
69	0xbdc6fdd9	-0.09716386
70	0x3e140d97	0.14458309
71	0xbefa9ed2	-0.48949295
72	0x3d1d6f02	0.038435943
73	0x3ee1caab	0.44099936
74	0x3db03e4c	0.08605632
75	0xbe644bf5	-0.222946
76	0xbdb0a499	-0.086251445
77	0x3d323ca3	0.04351486
78	0x3e31f2e2	0.17377809
79	0x3d81486b	0.06312641
80	0xbe8ba1e6	-0.27271956
81	0xbf17bb6b	-0.5927035
82	0xbf07b319	-0.53007656
83	0xbd3b53b2	-0.045734115
84	0xbe729736	-0.23690495
85	0x3bd7a47e	0.0065808883
86	0xbe8f1300	-0.27944183
87	0xbd99b788	-0.07505709
88	0x3d9b31bb	0.07577845
89	0x3eb5a913	0.35480556
90	0x3db4358d	0.087992765
91	0x3dea5986	0.114428565
92	0xbd97dc46	-0.07415061
93	0x3ec34dc3	0.38145265
94	0xbe6c8217	-0.230965
95	0x3e0b9577	0.13631235
96	0x3e8897c8	0.266783
97	0xbd6ebca3	-0.058285367
98	0xbea33da0	-0.31882954
99	0x3d8903ee	0.06690203
100	0x3f09dfa7	0.5385689
101	0x3f450708	0.76963854
102	0x3e135db9	0.14391221
103	0x3c8cafc7	0.01717366
104	0xbe03c1c6	-0.12866887
105	0x3cd8baec	0.026456319
106	0xbe290df9	-0.16509236
107	0xbd5fd6f4	-0.054648355

b1 f4 [4]
0	0x3daef7a5	0.08543328
1	0x3e6a5e58	0.22887552
2	0x3e6fd786	0.2342206
3	0x3db218e4	0.08696154

W2 f4 [8, 4, 3, 3]
0	0x3cf62215	0.030045548
1	0xbc3870e7	-0.011257387
2	0x3db96679	0.09052748
3	0x3cad9b55	0.021192232
4	0x3dcb7deb	0.09936126
5	0xbdb5245c	-0.088448256
6	0x3ec23121	0.37928107
7	0x3d56fe43	0.052488577
8	0xbe96c11b	-0.29444203
9	0x3e7e3163	0.24823527
10	0xbe14e8e7	-0.1454197
11	0xbe82e303	-0.2556382
12	0x3d7d4e2b	0.061842125
13	0x3eb714e0	0.35758114
14	0xbe9e220b	-0.30885348
15	0x3d1fa152	0.038972206
16	0x3e7e48ee	0.24832508
17	0xbe36061b	-0.17775767
18	0xbe4a4038	-0.1975106
19	0xbe02ce4a	-0.12774006
20	0xbe1d93b6	-0.15388379
21	0x3ead0921	0.33796027
22	0x3f09350e	0.5359658
23	0xbea622a6	-0.3244831
24	0x3d2f447e	0.04278993
25	0x3e2ebf39	0.17065133
26	0xbc02e39e	-0.0079888385
27	0xbd0f164f	-0.034933385
28	0x3d3d007e	0.046143048
29	0x3e57df3c	0.21081251
30	0x3e40cd3d	0.18828292
31	0x3dfefed5	0.12450949
32	0x3cdf95f3	0.027293181
33	0x3da88811	0.082290776
34	0xbe3cb79f	-0.18429421
35	0xbdf93096	-0.1216747
36	0x3cc8f3ff	0.024530409
37	0xbd9e71eb	-0.07736572
38	0x3dc26df5	0.09493629
39	0xbd00b113	-0.03141887
40	0xbdb20455	-0.086922325
41	0x3dacd56d	0.08439145
42	0xbe2423ae	-0.16029236
43	0x3e10a902	0.14126971
44	0x3d91d8cb	0.07121428
45	0x3ca7d782	0.020488504
46	0xbd51df66	-0.05123844
47	0x3dc6952f	0.09696423
48	0xbe650958	-0.22366846
49	0xbe207294	-0.15668708
50	0x3eebc599	0.46049193
51	0xbeee6a5d	-0.46565524
52	0x3e209777	0.15682779
53	0x3e73f575	0.23824103
54	0xbe63ab88	-0.22233403
55	0x3e094ae8	0.1340748
56	0xbda1f5e2	-0.079082265
57	0x3db0f582	0.08640577
58	0x3e21bce3	0.15794711
59	0x3e5f69e7	0.21817742
60	0x3e36364e	0.17794153
61	0x3d38af42	0.045089014
62	0x3d9a47cd	0.07533226
63	0xbe9a29fa	-0.3011015
64	0x3daba26e	0.083805904
65	0x3dca8a12	0.09889616
66	0x3e85bdea	0.26121455
67	0x3f0cfe24	0.5507529
68	0x3dad6b59	0.084677406
69	0x3e21d5bf	0.15804194
70	0x3e451487	0.19246112
71	0xbd339fb4	-0.043853477
72	0x3e60243c	0.21888822
73	0x3c25e9a5	0.010126506
74	0xbd8760f0	-0.06610286
75	0x3cec938e	0.028878953
76	0x3e58450a	0.21120086
77	0x3d8a1a15	0.06743256
78	0x3e6bce88	0.23028004
79	0x3edbef35	0.42955938
80	0xbe04d844	-0.12973124
81	0x3c942744	0.01808513
82	0xbd94ac07	-0.07259374
83	0xbca05318	-0.019570872
84	0xbe967102	-0.29383093
85	0xbec8666f	-0.3914065
86	0xbd7d6386	-0.06186249
87	0x3ea6af3d	0.3255557
88	0xbbc337b6	-0.005957569
89	0xbcb23cd7	-0.021757526
90	0x3edcc4fc	0.43119037
91	0x3e86646e	0.26248497
92	0xba890418	-0.001045349
93	0xbde81547	-0.11332183
94	0x3c2308ef	0.00995086
95	0x3d286db4	0.041120246
96	0x3ec14b39	0.37752703
97	0xbe8974a7	-0.2684681
98	0xbc6142f2	-0.013748871
99	0x3cb1958e	0.021677759
100	0x3d93f653	0.07224717
101	0xbd91336d	-0.07089887
102	0x3e9a4aab	0.30135092
103	0x3e3bdfdf	0.18347119
104	0xbe89e8da	-0.26935464
105	0x3dbc343a	0.09189649
106	0x3e3ddd57	0.18541466
107	0x3e6a0c38	0.22856224
108	0x3e14c09c	0.145266
109	0xbca147f7	-0.019687636
110	0xbd0a429d	-0.033754934
111	0x3c685973	0.014181483
112	0x3e40c507	0.1882516
113	0xbe24da4a	-0.16098896
114	0x3e8ab45a	0.27090722
115	0xbd8f54ea	-0.06998618
116	0xbe183dfd	-0.14867397
117	0xbe2ca6f9	-0.1686057
118	0x3e01499b	0.12625735
119	0x3dfb2263	0.12262418
120	0x3ea5d68b	0.32390246
121	0xbe7fd377	-0.24983011
122	0x3dd724c8	0.10505062
123	0x3ed54851	0.41656736
124	0xbeaf46b9	-0.34233645
125	0xbf396261	-0.7241574
126	0x3e56d9d8	0.20981538
127	0xbcee1b59	-0.029065775
128	0xbdd10f2b	-0.10207971
129	0x3d5e30b9	0.054245684
130	0xbeee8849	-0.46588352
131	0x3ed44a38	0.41462874
132	0x3f0bd595	0.54622775
133	0xbf04be32	-0.51852715
134	0xbdb4484f	-0.08802854
135	0x3df2cc32	0.118553534
136	0x3eafc719	0.34331587
137	0x3c87e6b9	0.01658951
138	0xbd4f887d	-0.050667275
139	0x3e50f03a	0.20404139
140	0xbe9fc8f3	-0.31208
141	0xbd9581b6	-0.07300131
142	0xbe1c1918	-0.15243948
143	0xbb1e7c28	-0.002418289
144	0xbe3010cf	-0.17193912
145	0x3e6438fb	0.22287361
146	0x3d8910b5	0.0669264
147	0x3e1e721b	0.15473215
148	0x3e68313d	0.22675033
149	0x3e358db2	0.17729834
150	0xbda1371f	-0.07871842
151	0x3de6b8dc	0.11265728
152	0x3eb1155b	0.34586605
153	0x3e9b162b	0.3029035
154	0xbcea9998	-0.028637692
155	0xbe97eb33	-0.2967163
156	0xbcfdfff2	-0.031005833
157	0x3e918b87	0.28426763
158	0x3ea53c55	0.32272592
159	0x3df6ff89	0.12060458
160	0x3d93b215	0.07211701
161	0xbea8c0b3	-0.32959518
162	0xbe0a83c4	-0.13526827
163	0xbd6484e7	-0.055790808
164	0x3e4d3042	0.2003794
165	0xbe8aafa5	-0.2708713
166	0x3e891f72	0.26781803
167	0x3e5f0ffc	0.21783441
168	0xbe7988e2	-0.24368623
169	0xbe8c4a78	-0.27400565
170	0xbf090d21	-0.5353566
171	0x3c0bdfcc	0.008537244
172	0x3dd9487c	0.106095284
173	0x3e4e2ca8	0.20134223
174	0x3e4f9b26	0.20274028
175	0x3e092880	0.13394356
176	0x3d381f38	0.044951648
177	0xbd43c638	-0.047796458
178	0x3dc63a60	0.09679103
179	0x3d5277a5	0.051383633
180	0x3dd57d51	0.10424293
181	0xbeb0dd3d	-0.3454379
182	0xbe27a937	-0.16373144
183	0xbda0f561	-0.07859302
184	0xbe2b2271	-0.16712357
185	0x3bd2205e	0.00641255
186	0xbcf629e4	-0.030049272
187	0x3e5dd0ec	0.21661729
188	0x3d62600f	0.05526739
189	0x3e6f53ab	0.2337176
190	0x3dfd2927	0.12361365
191	0x3e968674	0.29399455
192	0x3d1a870d	0.03772645
193	0xbe7f74da	-0.24946919
194	0x3ea38fa2	0.3194552
195	0x3e29cee7	0.16582833
196	0xbcc3dee4	-0.023909993
197	0x3e892a27	0.26789972
198	0xbe061ba0	-0.13096476
199	0xbe7747ef	-0.24148534
200	0x3e07c05e	0.13256976
201	0xbe12c6d9	-0.14333667
202	0xbeec7ce6	-0.4618904
203	0x3e5c1b65	0.21494825
204	0x3e1ae873	0.15127735
205	0xbe03d5b2	-0.12874487
206	0xbdf91c1f	-0.12163567
207	0xbc7ed0d1	-0.015552715
208	0xbd4b810a	-0.049683608
209	0xbdcd85b6	-0.10035269
210	0xbdf073ed	-0.11740861
211	0xbc002478	-0.007821195
212	0x3c034389	0.008011707
213	0xbe1229bc	-0.14273733
214	0xbd2a01f5	-0.041505773
215	0xbe11b9f7	-0.14231096
216	0x3e99c214	0.30030882
217	0x3de8b9eb	0.11363586
218	0x3d439bd0	0.047756016
219	0xbdcdb4b6	-0.100442335
220	0xbdcf89c6	-0.101337
221	0xbcf88d87	-0.030340923
222	0xbe1eb832	-0.15499952
223	0xbd8f931b	-0.0701048
224	0x3c783487	0.015149242
225	0x3e849e0c	0.2590183
226	0x3d8e23db	0.06940433
227	0x3ebb597d	0.36591712
228	0x3db67b1f	0.08910202
229	0xbaf3e712	-0.0018608293
230	0xbedceae3	-0.43147954
231	0xbecec5b9	-0.40385225
232	0xbe487bf9	-0.19578542
233	0x3e8b1bc3	0.27169618
234	0x3b713280	0.0036803782
235	0xbe488c24	-0.1958471
236	0xbdb4ea31	-0.08833731
237	0xbe1fff79	-0.15624799
238	0xbe899009	-0.26867703
239	0xbdda7547	-0.106669
240	0x3e2178d6	0.15768752
241	0x3ec5a270	0.38600492
242	0x3e780ea8	0.24224341
243	0x3eb919f8	0.36152625
244	0x3eb9769a	0.36223298
245	0x3c08d4bf	0.008351504
246	0xbe71ebeb	-0.23625152
247	0xbe826da0	-0.25474262
248	0x3d5e437c	0.054263577
249	0xbe1b9b44	-0.15195948
250	0xbe92d78b	-0.2868007
251	0xbd1ae6e1	-0.03781784
252	0x3c8667e8	0.016406968
253	0x3daee036	0.085388586
254	0x3e6ad857	0.2293409
255	0xbd516cd7	-0.05112919

b2 f4 [8]
0	0x3c822a89	0.015889423
1	0xbd511ab8	-0.05105087
2	0xbdb7bf54	-0.0897204
3	0x3e8390bc	0.2569636
4	0x3d9614bd	0.07328174
5	0x3d25ca1d	0.040475953
6	0xbbc32b2d	-0.0059560747
7	0x3e19d4c5	0.15022571

W3 f4 [12, 8, 3, 3]
0	0xbeb19a26	-0.34687918
1	0xbe064a2b	-0.1311423
2	0x3d369996	0.044580065
3	0xbe76f6ba	-0.24117556
4	0x3d569182	0.05238486
5	0xbde114ec	-0.10990319
6	0x3e18deec	0.14928788
7	0x3c99ce97	0.018775268
8	0xbd11baf6	-0.03557869
9	0xbe1a7085	-0.15081985
10	0x3d2f2d2f	0.0427677
11	0x3e68c4f9	0.22731389
12	0x3e00e467	0.12587129
13	0x3ef02cef	0.46909282
14	0x3c3a3b3c	0.011366662
15	0x3e19f4dc	0.15034813
16	0xbd82fa57	-0.06395405
17	0xbe485a51	-0.19565703
18	0xbe36f301	-0.17866136
19	0x3d277233	0.040880393
20	0x3e19ea37	0.15030752
21	0xbe120833	-0.1426094
22	0x3e09b54a	0.13448063
23	0x3e20b01f	0.15692185
24	0x3cd9ce2d	0.02658757
25	0x3e758eae	0.23980209
26	0x3d243b84	0.04009582
27	0xbddb97a4	-0.107222825
28	0xbea9f92c	-0.33197916
29	0xbdf68126	-0.12036352
30	0xbebbca5d	-0.36677828
31	0xbdcb921e	-0.09939979
32	0x3ddad23e	0.10684632
33	0xbdd0cd1e	-0.10195373
34	0x3e0a31d2	0.13495567
35	0x3d8c2b69	0.06844217
36	0x3d47a686	0.048742794
37	0xbceeafc8	-0.029136553
38	0x3dfd3cea	0.12365134
39	0xbceedb4c	-0.029157303
40	0xbd8c3062	-0.06845166
41	0x3d0e40d7	0.034729805
42	0xbbad906e	-0.0052967584
43	0x3e1686a5	0.146998
44	0xbe1673f0	-0.14692664
45	0xbdab4001	-0.08361817
46	0xbdb57012	-0.08859266
47	0xbd897aa6	-0.067128465
48	0xbcd3c40d	-0.02585032
49	0xbe217aff	-0.15769576
50	0xbdcf2b8c	-0.10115728
51	0xbe810acc	-0.2520355
52	0xbe4487f9	-0.19192494
53	0xbe1d2223	-0.15345053
54	0x3e0dbbd8	0.13841188
55	0xbcd4a57c	-0.025957815
56	0xbe89b234	-0.2689377
57	0x3dcb4a3b	0.09926268
58	0xbe8df163	-0.27723226
59	0xbe83b59a	-0.25724488
60	0xbe65299f	-0.22379158
61	0xbe9abd60	-0.30222607
62	0x3cc0ad3c	0.023520105
63	0xbe08b7f2	-0.1335142
64	0xbdcd1f9b	-0.10015794
65	0x3df2e725	0.118604936
66	0xbd2f37c0	-0.042777777
67	0x3e0ebd03	0.1393929
68	0x3d5b4dd7	0.05354103
69	0x3e03113c	0.12799543
70	0x3ded2420	0.11579156
71	0xbcadad34	-0.021200754
72	0xbdfc65fb	-0.12324139
73	0x3e1ea031	0.15490796
74	0x3e79706c	0.24359292
75	0xbe2bc77d	-0.16775317
76	0xbf0a0fea	-0.5393053
77	0xbcb16bed	-0.021657908
78	0x3e3023c8	0.1720115
79	0x3de45feb	0.111511074
80	0xbea94f35	-0.33068243
81	0x3d5c0846	0.053718828
82	0x3dec1f55	0.115294136
83	0xbd349a5c	-0.04409252
84	0xbe0be7b1	-0.13662602
85	0xbbbf80f4	-0.00584423
86	0xbe428827	-0.1899725
87	0xbe047e89	-0.12938894
88	0xbdfac745	-0.12245039
89	0x3dc5c7b1	0.09657229
90	0x3e8775c9	0.2645705
91	0x3d120637	0.03565046
92	0xbebbaca3	-0.3665515
93	0xbd1c15cf	-0.038106736
94	0x3e494b12	0.19657543
95	0xbd0d3adc	-0.03447996
96	0xbe9d9321	-0.30776313
97	0xbe1db6da	-0.15401784
98	0x3e701a11	0.23447444
99	0x3e838f72	0.25695378
100	0xbead7c08	-0.3388369
101	0xbe343e7b	-0.1760196
102	0xbceed027	-0.02915199
103	0x3ebac25b	0.36476406
104	0xbe593392	-0.21211079
105	0xbe618247	-0.22022353
106	0xbdccf588	-0.10007769
107	0x3ee09141	0.4386082
108	0x3e096965	0.13419111
109	0xbd7cb8e6	-0.06169977
110	0xbdcb68eb	-0.09932121
111	0x3d0a27e4	0.03372945
112	0x3e480a29	0.19535126
113	0x3e61bd36	0.22044834
114	0x3e2117c2	0.15731719
115	0xbe36b214	-0.17841369
116	0xbdc9c0f6	-0.098512575
117	0x3d392d04	0.045208946
118	0x3c31ae01	0.010844708
119	0xbdf5b815	-0.119980015
120	0xbd11431a	-0.035464384
121	0x3d70da92	0.058802195
122	0x3d7c12ac	0.061541244
123	0xbeb25cf4	-0.34836543
124	0xbd1aca90	-0.037790835
125	0x3e1c2225	0.152474
126	0xbe1cf78d	-0.15328808
127	0xbd7d58f9	-0.06185243
128	0x3e4a4298	0.19751966
129	0x3e3db20f	0.18524955
130	0xbdd59141	-0.104280956
131	0x3dbad048	0.09121758
132	0x3e03fd43	0.1288958
133	0x3e6d817b	0.23193924
134	0x3e38b6c9	0.18038477
135	0x3e4b8166	0.1987358
136	0xbd871e26	-0.06597547
137	0xbe512f54	-0.2042821
138	0x3d9516eb	0.07279762
139	0x3ea4bf83	0.32177362
140	0xbdc11807	-0.09428411
141	0xbe10285e	-0.14077899
142	0xbdc49d95	-0.09600369
143	0x3e88ff46	0.26757258
144	0xbe3d6f0b	-0.18499391
145	0xbd2664a5	-0.040623326
146	0x3db97d42	0.09057094
147	0x3b954b36	0.004556085
148	0x3e7022cc	0.23450774
149	0x3e02cc9f	0.12773369
150	0x3da5e00f	0.080993764
151	0x3d8f7d5d	0.07006333
152	0x3de2724b	0.11056956
153	0x3d14eab8	0.036356658
154	0x3e39c8d0	0.1814301
155	0xbd80fdc0	-0.06298399
156	0xbd957377	-0.07297414
157	0x3de766f6	0.11298935
158	0x3e8129a7	0.2522709
159	0x3e788a4d	0.24271508
160	0x3e9807b6	0.29693383
161	0x3e0e2900	0.13882828
162	0xbca86cb9	-0.020559656
163	0xbddc76eb	-0.10764869
164	0x3dc2c97f	0.095110886
165	0x3e6acb13	0.22929029
166	0xbcba5f7d	-0.02275061
167	0x3cdcdc7e	0.026960608
168	0xbdbce678	-0.09223646
169	0x3d8742bd	0.06604526
170	0x3d3a240d	0.045444537
171	0x3db6b808	0.0892182
172	0x3dc201f5	0.094730295
173	0xbdd98709	-0.10621459
174	0xbd03cd17	-0.03217801
175	0x3dfd1ecb	0.12359389
176	0x3d4f4830	0.050605953
177	0x3be161e8	0.0068781264
178	0x3db5d545	0.088785686
179	0x3e0fa06a	0.14026037
180	0x3a60577e	0.0008557959
181	0xbdc044c6	-0.093881175
182	0xbe16e97c	-0.14737505
183	0xbe260438	-0.16212547
184	0xbe298704	-0.1655541
185	0xbe5fc1b5	-0.21851237
186	0x3da843ff	0.08216094
187	0xbdea6d23	-0.114465974
188	0xbdcbd033	-0.0995182
189	0xbe4f0382	-0.20216182
190	0x3c399e21	0.011329205
191	0xbe000238	-0.12500846
192	0xbe7eb872	-0.24875048
193	0xbd71ce97	-0.05903491
194	0xbd1f5972	-0.03890366
195	0xbe80e037	-0.25171062
196	0xbe3bce1e	-0.18340346
197	0xbd707605	-0.058706302
198	0x3d9ac5af	0.075572364
199	0x3d90f750	0.07078421
200	0x3c6b3198	0.014355086
201	0x3d4e84bc	0.050419554
202	0x3d9a9fa1	0.07549978
203	0x3d30b828	0.043144375
204	0x3ca6eea2	0.02037746
205	0x3d3d9205	0.046281833
206	0x3e265a1b	0.1624531
207	0xbd847543	-0.064676784
208	0xbe2234b8	-0.15840423
209	0xbd6eae80	-0.058271885
210	0xbe241cda	-0.16026631
211	0xbe3f6ff6	-0.18695053
212	0xbdd292b5	-0.102818884
213	0x3cd9a311	0.026567014
214	0xbc5e027d	-0.013550398
215	0xbe12a480	-0.14320564
216	0x3dfda889	0.12385661
217	0x3dd9385b	0.10606452
218	0xbd766c61	-0.060161952
219	0xbe198604	-0.14992529
220	0xbe117f11	-0.14208628
221	0xbe632dd0	-0.22185445
222	0xbca9cc9b	-0.020727446
223	0x3bd9874a	0.006638442
224	0xbd3ed31c	-0.04658805
225	0xbce7dff3	-0.02830503
226	0x3c9fafc2	0.019492988
227	0xbdb66eec	-0.089078754
228	0xbd957603	-0.072978996
229	0xbe827c4e	-0.25485462
230	0xbe39213a	-0.18079081
231	0xbdd6c104	-0.104860336
232	0xbd06d6e0	-0.032919765
233	0x3c9dbcc1	0.019255044
234	0x3e244f18	0.16045797
235	0x3d8ef4ed	0.0698031
236	0x3be1cd70	0.006890945
237	0x3d1cc30d	0.038271952
238	0x3e29a25f	0.16565846
239	0x3e7d1601	0.24715425
240	0x3c99e1da	0.018784452
241	0x3e68771c	0.22701687
242	0x3e496dd2	0.196708
243	0xbcdeea7f	-0.027211426
244	0xbe1fa840	-0.15591526
245	0xbe246a6f	-0.16056226
246	0x3e00a81c	0.12564129
247	0xbc141ebf	-0.009040534
248	0x3e5587ae	0.20852539
249	0x3ca57e96	0.020201962
250	0x3cf8082a	0.03027733
251	0xbd495e57	-0.049162235
252	0x3e9fccdc	0.31210983
253	0x3d687e1a	0.056760885
254	0x3d90d0fc	0.070711106
255	0x3e9cb9f5	0.30610624

b3 f4 [12]
0	0x3e0921c6	0.1339179
1	0x3c698f1a	0.0142553095
2	0xbdc3a9a8	-0.09553844
3	0xbde77dca	-0.11303289
4	0x3d79a600	0.060949326
5	0xbd889abd	-0.06670139
6	0xbe132939	-0.14371194
7	0xbdd5e1bd	-0.10443447
8	0xbcfa4ec6	-0.03055514
9	0x3d53724d	0.051622678
10	0x3d24d161	0.04023874
11	0x3d3c2b8e	0.045939974

W4 f4 [16, 12, 3, 3]
0	0x3d87c424	0.06629208
1	0xbe20058f	-0.1562712
2	0x3d8be873	0.068314455
3	0x3e9cf5ea	0.30656368
4	0x3d081272	0.033220716
5	0xbcc2275c	-0.023700409
6	0x3ddc8d84	0.107691795
7	0x3e116c6f	0.1420152
8	0x3db82739	0.08991856
9	0x3e998d05	0.29990402
10	0x3dd3933c	0.10330817
11	0xbc99d366	-0.01877756
12	0x3e44e8c4	0.19229418
13	0x3e457f06	0.19286737
14	0x3e532dce	0.20622942
15	0x3e67f791	0.22653033
16	0x3e4b0b15	0.19828446
17	0x3e059c04	0.13047796
18	0x3c0d4fb7	0.0086249625
19	0x3de1271c	0.10993788
20	0xbc90cd47	-0.017676009
21	0x3d561cf6	0.052273713
22	0x3d513025	0.051071305
23	0xbdd8ebf7	-0.10591882
24	0xbde16071	-0.11004723
25	0x3dd0d945	0.10197691
26	0x3dfd1b14	0.1235868
27	0xbdc62bb2	-0.09676303
28	0xbdca9adf	-0.098928206
29	0x3cb5bd51	0.022185
30	0xbd10eac6	-0.035380147
31	0x3c1f92aa	0.009739557
32	0xbc040382	-0.008057477
33	0x3e17f9a9	0.14841332
34	0x3d998c96	0.07497518
35	0xbe6908a6	-0.22757205
36	0xbe299688	-0.1656133
37	0xbe518c87	-0.20463763
38	0xbb467564	-0.0030282373
39	0xbdcd6718	-0.10029429
40	0xbd3317a0	-0.043723702
41	0x3cbe8825	0.023258278
42	0x3e201ad8	0.1563524
43	0x3e08eef4	0.13372403
44	0xbdb623c0	-0.088935375
45	0xbd950a89	-0.072774
46	0x3bab2d5a	0.005223912
47	0x3cd09653	0.025462305
48	0x3da2d6bd	0.07951114
49	0xbca37dcd	-0.019957447
50	0x3e2b4894	0.16726905
51	0x3bdf39f0	0.0068123266
52	0x3e3055b0	0.17220187
53	0x3c30a494	0.010781426
54	0xbdfa1b8f	-0.12212288
55	0xbe3a66df	-0.18203305
56	0x3dd39d17	0.10332697
57	0xbe05d9c5	-0.13071354
58	0xbc544d1c	-0.012957837
59	0xbd51e6ae	-0.051245384
60	0xbcc44af7	-0.023961527
61	0xbd0bf183	-0.03416587
62	0xbe4f0d20	-0.2021985
63	0xbdec0926	-0.115251824
64	0x3d4cfd65	0.050046343
65	0x3e664071	0.2248552
66	0x3dd44763	0.103651784
67	0x3dd30a8a	0.103047445
68	0xbcd4b213	-0.025963819
69	0x3b20720e	0.0024482044
70	0x3e3d55a0	0.18489695
71	0xbde2aac3	-0.110677265
72	0x3d1a7740	0.037711382
73	0x3e143c03	0.14476018
74	0x3d396165	0.0452589
75	0x3db82ed8	0.0899331
76	0xbca7a126	-0.020462584
77	0xbd75de94	-0.06002672
78	0xbe0e2315	-0.1388057
79	0xbe49e274	-0.19715291
80	0xbaca0d8e	-0.0015415417
81	0x3dd4a82a	0.10383637
82	0xbd9b5a9d	-0.075856425
83	0x39f2cb7c	0.00046309445
84	0xbd9d1449	-0.07669885
85	0x3dd4529b	0.10367318
86	0xbd3321b3	-0.04373331
87	0x3e8c4c85	0.2740213
88	0x3e37424a	0.17896381
89	0xbdc08323	-0.09400012
90	0xbdc55fa9	-0.09637386
91	0xbc9ff84b	-0.019527575
92	0x3d379bc2	0.044826277
93	0xbe2b9e0c	-0.16759509
94	0xbd002d89	-0.031293426
95	0xbdf3d826	-0.119064614
96	0x3da807af	0.082045905
97	0xbc895664	-0.016764827
98	0xbc019227	-0.007908381
99	0x3e4bd43f	0.19905184
100	0x3db11d49	0.08648164
101	0x3caf8223	0.021424359
102	0x3da8f311	0.08249486
103	0x3d2e0e81	0.0424943
104	0x3d452aeb	0.048136633
105	0x3dcc0f98	0.09963912
106	0x3e378d09	0.17924894
107	0xbdaf5497	-0.08561056
108	0xbe112d0c	-0.1417734
109	0x3de8ef04	0.113737136
110	0x3db5a059	0.088684745
111	0xbd219654	-0.039450005
112	0x3da0a7cd	0.078445055
113	0x3e5df3e8	0.21675074
114	0xbd0e8ad9	-0.034800384
115	0x3e591820	0.21200609
116	0x3e30f5ae	0.1728122
117	0x3dc68aa7	0.096944146
118	0xbca44a76	-0.020055037
119	0xbe1849eb	-0.14871947
120	0xbb1afecc	-0.0023650406
121	0xbdd597fa	-0.10429378
122	0xbdd844dd	-0.1056001
123	0x3d58ba75	0.052912194
124	0xbcc79561	-0.024363222
125	0x3e1d0bdd	0.15336557
126	0x3d59d8c7	0.05318525
127	0x3dc95546	0.09830718
128	0xbd885619	-0.06657047
129	0xbd9ce5a8	-0.07660991
130	0xbd211568	-0.039327055
131	0x3e466ea6	0.19378147
132	0x3e14cf5d	0.14532228
133	0x3eaf93a9	0.34292343
134	0x3e5afa9f	0.21384667
135	0xbc99ba85	-0.018765697
136	0xbdf249b8	-0.11830467
137	0xbe0dbccd	-0.13841553
138	0xbde3a7ea	-0.111160114
139	0xbe514036	-0.20434651
140	0xbe490ab5	-0.1963299
141	0xbc9b8cee	-0.018988099
142	0xbe2e7f7c	-0.17040819
143	0x3da47d25	0.08031682
144	0x3d14cdc0	0.03632903
145	0x3da83e69	0.08215029
146	0xbd0d95dc	-0.034566745
147	0x3de31418	0.11087817
148	0x3af1b758	0.0018441482
149	0xbcd4db07	-0.025983347
150	0x3d4b8f35	0.04969712
151	0x3dd2eb14	0.10298744
152	0x3daa5a53	0.08318009
153	0xbe11d531	-0.14241482
154	0xbd933eef	-0.07189738
155	0xbe111644	-0.1416865
156	0xbe370a9d	-0.17875142
157	0xbd8ba70f	-0.06818973
158	0xbd41c609	-0.047308
159	0xbe1bdf96	-0.1522201
160	0x3d125f66	0.03573551
161	0x3dcff849	0.101547785
162	0xbdfb5991	-0.12272943
163	0xbe694714	-0.2278102
164	0xbe298602	-0.16555026
165	0xbe62cc88	-0.22148335
166	0xbea6ec34	-0.32602084
167	0xbe254b23	-0.16141944
168	0xbe98a092	-0.29810005
169	0xbe448305	-0.19190605
170	0x3d6a9779	0.05727336
171	0xbc082eec	-0.008311968
172	0xbe183651	-0.1486447
173	0xbe4e58f5	-0.20151122
174	0xbde500e9	-0.11181814
175	0xbe503b06	-0.20335016
176	0xbd478998	-0.048715204
177	0xbdd62edb	-0.10458156
178	0x3bf2aae9	0.007405628
179	0x3e1180f0	0.14209342
180	0xbdf246aa	-0.11829884
181	0xbcc5c633	-0.02414236
182	0xbbb91ed2	-0.005649426
183	0xbdc0cb57	-0.09413784
184	0x3e30174d	0.17196389
185	0xbd054d9f	-0.03254473
186	0x3d3ee244	0.046602502
187	0x3e537645	0.20650585
188	0x3cd40aa1	0.025883975
189	0x3e166009	0.14685072
190	0x3e2060fd	0.15661998
191	0xbd9202f2	-0.07129468
192	0x3e44eaf1	0.19230248
193	0x3e1f4f94	0.155577
194	0xbd0ca064	-0.034332648
195	0x3df07f34	0.11743012
196	0xbd3a2e39	-0.045454238
197	0x3d204241	0.039125685
198	0x3d1c1231	0.038103286
199	0xbd1bc507	-0.038029697
200	0xbcc370f1	-0.023857566
201	0x3c6c35a0	0.014417082
202	0xbd85fff2	-0.06542958
203	0xbd3d6695	-0.046240408
204	0x3dbfa022	0.09356715
205	0xbc5c366d	-0.0134407105
206	0xbdfda593	-0.123850964
207	0x3d2f44a9	0.04279009
208	0x3d1a92fd	0.037737835
209	0xbdfce698	-0.1234867
210	0xbc9cf656	-0.01916043
211	0x3d4369e9	0.047708426
212	0xbe248a1f	-0.16068314
213	0xbd22ca43	-0.039743673
214	0xbcc04dde	-0.02347463
215	0xbc43c32f	-0.011948391
216	0xbe28e307	-0.16492854
217	0xbe4adcae	-0.19810745
218	0xbeab8bbd	-0.3350505
219	0x3dda4009	0.10656745
220	0x3d041005	0.03224184
221	0xbe8bda79	-0.2731512
222	0x3d66ecd4	0.0563782
223	0x3dc66885	0.09687904
224	0xbd2c6dee	-0.042097025
225	0x3e27d969	0.16391529
226	0x3e23a432	0.15980604
227	0x3e1dc0dc	0.15405601
228	0xbe1041a1	-0.14087535
229	0xbcd67a18	-0.026181266
230	0xbe01c401	-0.12672426
231	0x3e1df4c1	0.15425397
232	0x3e166e28	0.14690459
233	0x3d8e86fd	0.06959341
234	0x3d369cab	0.044583004
235	0xbde3e3dd	-0.11127446
236	0xbe56e887	-0.2098714
237	0x3e8b51d7	0.27210876
238	0x3df8eb3c	0.121542424
239	0x3ded8537	0.11597674
240	0x3e12ce8e	0.14336607
241	0x3c49510f	0.012287392
242	0x3d0f6002	0.03500367
243	0x3e564525	0.20924814
244	0x3e2e4443	0.17018227
245	0x3e634f3b	0.22198193
246	0xbdc45c42	-0.09587909
247	0xbe3da9ec	-0.18521851
248	0xbde9fa32	-0.11424674
249	0x3c74b99b	0.01493683
250	0x3e0e359f	0.13887642
251	0xbd0b8961	-0.03406656
252	0xbd82a6ae	-0.06379448
253	0xbe7114d6	-0.23543105
254	0xbe359b74	-0.17735082
255	0x3da74de6	0.08169155

b4 f4 [16]
0	0xbe595edc	-0.21227592
1	0x3e4b25a0	0.19838572
2	0xbc4f18bc	-0.0126401745
3	0xbc3aea1c	-0.011408355
4	0x3d7d636d	0.061862398
5	0xbd86eb18	-0.06587809
6	0x3db8ac77	0.0901727
7	0xbe64e14a	-0.22351566
8	0xbd974bd5	-0.07387511
9	0xbd1a4519	-0.037663553
10	0xbcdfcadd	-0.027318412
11	0xbe2ad0cd	-0.16681214
12	0x3e9621f1	0.2932277
13	0xbdcda31a	-0.10040875
14	0x3b033644	0.0020021359
15	0xbd7f6c37	-0.06235906

W5 f4 [24, 16, 3, 3]
0	0x3b138ee6	0.0022515594
1	0x3dc8631c	0.097845286
2	0x3dab4224	0.08362225
3	0xbd72f9c9	-0.059320245
4	0x3ddb9e25	0.10723523
5	0xbbd54a93	-0.006509134
6	0x3dd7a975	0.10530368
7	0xbcf4ff3a	-0.029906858
8	0xbcd65e00	-0.02616787
9	0xbe0c56da	-0.13705006
10	0x3d8438c6	0.06456141
11	0x3dbd7c9b	0.09252282
12	0xbd7475e0	-0.059682727
13	0x3ca71d19	0.020399617
14	0x3c924177	0.017853482
15	0xbd58d12e	-0.052933864
16	0x3d88183b	0.066452466
17	0x3d1b425e	0.03790509
18	0xbd6f3b63	-0.058406245
19	0xbbd55b81	-0.0065111523
20	0xbdc3679d	-0.09541247
21	0x3cbc5586	0.02299
22	0xbd521e64	-0.051298514
23	0x3d0f3221	0.034959916
24	0xbbcedfb8	-0.0063132904
25	0x3e21fa6f	0.15818189
26	0x3d425415	0.047443468
27	0x80000d2d	-4.727e-42
28	0x0019d1f6	2.371207e-39
29	0x8001b23e	-1.55777e-40
30	0x0000dfbc	8.0261e-41
31	0x8000c671	-7.1187e-41
32	0x80018d09	-1.4243e-40
33	0x80018004	-1.37759e-40
34	0x80193dd0	-2.318062e-39
35	0x80018b63	-1.41838e-40
36	0xbe487e2a	-0.19579378
37	0x3d13c64c	0.036077783
38	0x3d05e7c1	0.03269172
39	0xbc7def7c	-0.015498992
40	0x3c5d4af3	0.013506639
41	0x3d96a752	0.073561326
42	0x3d5c512b	0.053788345
43	0xbd3dd016	-0.046341024
44	0x3d16f079	0.036850426
45	0x0000ccea	7.351e-41
46	0x00001035	5.814e-42
47	0x000190f1	1.4383e-40
48	0x80009458	-5.3216e-41
49	0x8000fafa	-9.0033e-41
50	0x0000959d	5.3671e-41
51	0x0000cdbb	7.3802e-41
52	0x80006d9c	-3.932e-41
53	0x8000c482	-7.0494e-41
54	0xbe2f81eb	-0.17139404
55	0xbd67619e	-0.05648958
56	0xbd32b28c	-0.043627307
57	0xbe1d2b91	-0.1534865
58	0xbd90b7e1	-0.07066322
59	0x3e82603e	0.25464052
60	0xbe49cbde	-0.19706675
61	0xbd38508c	-0.04499869
62	0x3d8ab4f5	0.06772796
63	0x3e403d9b	0.187735
64	0x3e20615f	0.15662144
65	0x3d4572af	0.048205074
66	0x3e0e2a78	0.13883388
67	0xbcc3c4a7	-0.023897482
68	0x3cd9f6fc	0.02660703
69	0x3dbe8fc6	0.09304766
70	0xbe2e535c	-0.17023987
71	0xbe5a88d6	-0.21341261
72	0xbdba40f9	-0.09094424
73	0xbda6873a	-0.08131261
74	0x3e54ace7	0.20769082
75	0xbe73fdc2	-0.2382727
76	0xbe3e6aed	-0.18595476
77	0x3d6bb501	0.057545666
78	0xbcabc49b	-0.020967772
79	0x3def087d	0.11671541
80	0x3d4bc4c1	0.049748186
81	0x00004dc9	2.7904e-41
82	0x80008cb6	-5.0478e-41
83	0x8001033c	-9.2996e-41
84	0x800080fb	-4.627e-41
85	0x800115e3	-9.9687e-41
86	0x00016e0c	1.31313e-40
87	0x8000db7e	-7.8739e-41
88	0x00015eab	1.25796e-40
89	0x0000a223	5.8164e-41
90	0x3ddb4f73	0.10708513
91	0x3d93b2af	0.072118156
92	0x3d46a2df	0.04849517
93	0x3e0ed625	0.13948877
94	0xbe132ccb	-0.14372556
95	0xbeab9fce	-0.3352036
96	0xbc06c12b	-0.008224766
97	0xbe16d25f	-0.14728688
98	0xbd9bb45b	-0.076027595
99	0xbadbab39	-0.0016759402
100	0x3dae408a	0.085084036
101	0x3d57e7ba	0.052711226
102	0x3de06b62	0.10957982
103	0x3e52b27f	0.20575903
104	0x3d66bc91	0.056332175
105	0x3e65bcd8	0.2243532
106	0xbdfbc3b7	-0.12293189
107	0xbe40df5f	-0.1883521
108	0xbcecf6b1	-0.028926225
109	0xbe57e8b8	-0.21084869
110	0xbe3d4abf	-0.18485545
111	0xbb422435	-0.0029623632
112	0xbd8a7328	-0.067602456
113	0x3d197d09	0.03747276
114	0x3dfd73eb	0.12375625
115	0x3e179946	0.14804563
116	0xbd930818	-0.07179278
117	0x3d84b9b5	0.06480733
118	0xbddcee87	-0.10787683
119	0xbdbdc994	-0.092669636
120	0x3e1163d7	0.14198242
121	0x3daa5782	0.08317472
122	0xbcc99491	-0.024606975
123	0x3e610cdf	0.21977566
124	0x3ddadaa0	0.10686231
125	0xbdd7d30a	-0.105382994
126	0x3e0bf967	0.13669358
127	0x3d3a7665	0.045523066
128	0x3da74df4	0.08169165
129	0xbdb7c7bf	-0.089736454
130	0xbde97b3e	-0.1140046
131	0xbe4eea60	-0.20206594
132	0xbd32fb11	-0.043696467
133	0xbe06c060	-0.13159323
134	0xbde52f28	-0.11190635
135	0x3d046a24	0.032327786
136	0x3e5871d3	0.2113717
137	0x3dd2d2ee	0.10294138
138	0x3e23738f	0.15962051
139	0xbd9f4ca9	-0.07778294
140	0xbe96b96a	-0.29438335
141	0xbd7031ab	-0.058641117
142	0xbe84776c	-0.25872362
143	0x3da5a064	0.08087233
144	0xbddbd497	-0.10733908
145	0xbc2d75ae	-0.010587139
146	0xbb88923f	-0.0041678245
147	0x3e1aa511	0.1510203
148	0x3e6927fa	0.22769156
149	0xbd51e7ce	-0.051246457
150	0x3e73f607	0.2382432
151	0x3d950864	0.07276991
152	0xbe51c1fe	-0.20484158
153	0xbcf031d5	-0.029320637
154	0xbdc6550b	-0.096841894
155	0xbe7de099	-0.24792708
156	0x3ef78bee	0.48348945
157	0xbcfc69f4	-0.030812241
158	0xbe70ae97	-0.235041
159	0x3e95f552	0.29288727
160	0x3d4d01d3	0.050050568
161	0xbd69a6ef	-0.057043966
162	0xbb2b554d	-0.0026143373
163	0x3d96eab8	0.07368988
164	0xbe14663b	-0.14492123
165	0x3e3530dd	0.17694421
166	0x3e0ab056	0.1354383
167	0xbd50b06c	-0.0509495
168	0xbdf055ad	-0.11735091
169	0xbcbb17b6	-0.022838455
170	0xbdf38d10	-0.1189214
171	0x80066669	-5.87751e-40
172	0x80018dcc	-1.42703e-40
173	0x000092e8	5.27e-41
174	0x800054dd	-3.0443e-41
175	0x00000bdc	4.254e-42
176	0x000171cc	1.32658e-40
177	0x00140789	1.839413e-39
178	0x8001c490	-1.62349e-40
179	0x800686bb	-5.99345e-40
180	0x3e1faa43	0.15592293
181	0x3d1e6fd4	0.038680866
182	0x3c89daf6	0.016828042
183	0x3e35df72	0.17761019
184	0xbdee25d7	-0.11628311
185	0xbd1e94a3	-0.03871597
186	0xbd085d8d	-0.033292342
187	0xbe15150e	-0.14558813
188	0xbe2645aa	-0.16237512
189	0x000007a9	2.748e-42
190	0x8001af15	-1.54643e-40
191	0x800123c3	-1.04664e-40
192	0x800163bf	-1.27618e-40
193	0x80001592	-7.738e-42
194	0x0001afc1	1.54884e-40
195	0x000187ad	1.40507e-40
196	0x8000a0f6	-5.7742e-41
197	0x800077b8	-4.2947e-41
198	0x3d8c5dc0	0.06853819
199	0x3c80c674	0.01571963
200	0xbc532754	-0.0128877945
201	0x3e83cc48	0.25741792
202	0xbdc92de4	-0.09823206
203	0xbe10c7a3	-0.14138655
204	0xbdddf482	-0.10837652
205	0xbcd4ca2e	-0.025975313
206	0xbce64133	-0.028107261
207	0x3e08b0e6	0.13348731
208	0x3dfbd470	0.122963786
209	0xbbe7efe6	-0.0070781587
210	0x3c9c144a	0.019052643
211	0x3db924a4	0.09040192
212	0xbdefa098	-0.11700553
213	0x3c0234d1	0.007947163
214	0xbd5896d4	-0.052878216
215	0xbe21ddaa	-0.15807214
216	0xbe086a48	-0.13321793
217	0xbe63f50b	-0.22261445
218	0xbd68f3dd	-0.05687319
219	0x3e6837a2	0.22677472
220	0xbe03623f	-0.12830447
221	0xbe03f703	-0.12887196
222	0x3e441064	0.19146878
223	0x3d0df64f	0.034658726
224	0xbd4d2d1f	-0.05009186
225	0x8000e0cf	-8.0646e-41
226	0x8000ab8a	-6.1537e-41
227	0x800158a1	-1.2363e-40
228	0x0000c89f	7.1969e-41
229	0x00019b0f	1.4746e-40
230	0x80019410	-1.4495e-40
231	0x00008576	4.7877e-41
232	0x80015e5f	-1.2569e-40
233	0x80007c1d	-4.4523e-41
234	0xbe1c0d0d	-0.15239353
235	0xbcb6fff1	-0.02233884
236	0x3dc8287c	0.09773347
237	0x3d92afa0	0.07162404
238	0x3e4801f1	0.1953199
239	0x3ca084fc	0.019594662
240	0x3dc1f1a7	0.0946992
241	0x3cf77bc3	0.030210381
242	0x3c8a7b36	0.016904455
243	0xbe24edd7	-0.16106354
244	0xbdabb29b	-0.08383676
245	0x3e3404e3	0.17579989
246	0xbe9ece06	-0.31016558
247	0x3d36b35e	0.04460465
248	0x3e0cedcd	0.13762589
249	0x3e1f8cfe	0.15581128
250	0x3b42cdf9	0.002972482
251	0xbca67a66	-0.020322036
252	0x3c447353	0.011990386
253	0x3cdd102d	0.026985252
254	0xbdc9da80	-0.09856129
255	0x3e6e7789	0.23287787

b5 f4 [24]
0	0xbdc58e23	-0.09646251
1	0xbe637e1e	-0.22216079
2	0x3e7495ab	0.23885219
3	0xbdda443e	-0.106575474
4	0xbed8560f	-0.42253157
5	0x3baca4d4	0.0052686725
6	0xbe02cd18	-0.1277355
7	0xbd999b6d	-0.07500348
8	0x3d9e1e53	0.07720628
9	0x3e6d41c1	0.23169614
10	0x3e9e9432	0.3097244
11	0xbe315dc6	-0.17320928
12	0x3ef73f70	0.48290586
13	0x3b668f3a	0.0035180585
14	0x3ed350da	0.41272622
15	0x3e34cdf0	0.17656684
16	0x3ebd71bc	0.37000835
17	0xbc7a892a	-0.0152914915
18	0x3e10c373	0.14137058
19	0x3e82d4f7	0.25553104
20	0xbc2d9aa6	-0.010595953
21	0xbde1576a	-0.11003001
22	0x3e9dd0a2	0.30823237
23	0x3da08954	0.07838693

W6 f4 [32, 24, 3, 3]
0	0xbd30ceab	-0.043165844
1	0xbd3557da	-0.044273235
2	0x3e68bf05	0.22729118
3	0xbd3300cb	-0.043701928
4	0x3c2a8b01	0.010409118
5	0x3d9d8e7c	0.07693192
6	0xbd8ff6c7	-0.07029491
7	0xbde8dfec	-0.11370835
8	0xbc0c75b4	-0.0085729845
9	0x3e25c51d	0.16188474
10	0x3c55d5fa	0.013051504
11	0xbd720e18	-0.059095472
12	0x3d86b235	0.06576959
13	0x3e3ed7f7	0.18637072
14	0x3e09ff2c	0.13476247
15	0xbc8fd18c	-0.017555974
16	0x3c1e10b4	0.009647537
17	0x3e3628da	0.17789021
18	0x3c5ee111	0.013603465
19	0x3e0e9e6f	0.13927625
20	0x3da0d5ec	0.07853302
21	0xbd55dc08	-0.05221179
22	0x3db342c3	0.08752968
23	0xbd8c0b0c	-0.068380445
24	0x3c512dac	0.012767237
25	0x3ce11b91	0.027478965
26	0x3aa22a29	0.0012372184
27	0x3dc6270d	0.09675417
28	0x3d87fdd7	0.06640213
29	0xbd734799	-0.059394453
30	0x3e074122	0.1320844
31	0x3db14f62	0.08657719
32	0xbd4b5f65	-0.049651522
33	0x3d1a5d99	0.037686918
34	0x3c41675d	0.011804429
35	0xbe24005b	-0.1601576
36	0x3e0f3909	0.13986601
37	0x3e02242a	0.12709108
38	0x3bb68404	0.0055699367
39	0x3c705a07	0.014669902
40	0xbb57763a	-0.0032876865
41	0xbd09d8ce	-0.033654027
42	0xbe3e2c3c	-0.18571562
43	0xbe92ae6d	-0.286487
44	0xbe9543fd	-0.29153433
45	0xbe0f9032	-0.1401985
46	0xbd6002bd	-0.05469011
47	0xbcdfa103	-0.027298456
48	0x3d51ba75	0.05120321
49	0x3d9e062a	0.077160195
50	0x3d131923	0.035912644
51	0xbcea2460	-0.028581798
52	0xbd071c4b	-0.032985967
53	0xbd229963	-0.039697062
54	0xbd632542	-0.055455454
55	0xbccffe94	-0.025389947
56	0xbd224688	-0.039618045
57	0x3cf4eac8	0.029897109
58	0xbd4008b6	-0.046883307
59	0xbd1b05e3	-0.03784741
60	0xbde299bd	-0.110644795
61	0x3c99c864	0.018772312
62	0xbc55dd52	-0.013053255
63	0xbb723ed8	-0.0036963727
64	0x3c5a32fb	0.013317819
65	0x3da22c14	0.079185635
66	0x3d82be45	0.06383947
67	0x3db418d7	0.087938
68	0x3de7d988	0.11320788
69	0xbdf6af33	-0.12045135
70	0xbdbabf3f	-0.091185085
71	0xbd2cc87d	-0.042183388
72	0x3d48ef9f	0.049056645
73	0x3d85a5cd	0.065257646
74	0x3b81f6e0	0.0039661974
75	0xbd9a64b0	-0.07538736
76	0x3b9db25f	0.0048125233
77	0xbd424281	-0.047426704
78	0xbd8d7099	-0.06906242
79	0x3e3074da	0.17232075
80	0x3e3912ab	0.18073528
81	0xbe6e13cc	-0.2324974
82	0xbd9f56ab	-0.077802025
83	0x3db8411e	0.08996795
84	0xbd6da805	-0.058021564
85	0xbe130283	-0.14356427
86	0xbdc07ff9	-0.09399409
87	0xbe1768f2	-0.14786127
88	0xbce3a3b7	-0.027788026
89	0x3d27175b	0.040793758
90	0x3da676b4	0.081281096
91	0x3d837204	0.06418231
92	0x3dcc9395	0.099890865
93	0x3decfe59	0.115719505
94	0x3e0c18f6	0.13681397
95	0x3db76b6d	0.08956037
96	0x3cf9f410	0.030511886
97	0xbdc9cce7	-0.09853535
98	0x3d9521da	0.07281847
99	0x3e25b662	0.16182855
100	0x3e001714	0.12508804
101	0xbd0cb746	-0.03435447
102	0x3e63dbbb	0.2225179
103	0x3d9d4ef9	0.076810785
104	0xbd4e5a31	-0.050378982
105	0x3d71b352	0.059008904
106	0x3d645ddb	0.05575357
107	0xbcff5bc2	-0.031171683
108	0xbe2b0818	-0.16702306
109	0xbd0b82e5	-0.034060378
110	0x3cbe98ac	0.023266159
111	0xbdf279c2	-0.1183963
112	0x3bbce821	0.0057649766
113	0xbcc50359	-0.024049448
114	0xbd96a13f	-0.07354974
115	0xbd11e2b4	-0.03561659
116	0xbdaa2ee3	-0.08309724
117	0xbd31aad0	-0.04337579
118	0xbc9f49f3	-0.019444441
119	0xbe0b3f2d	-0.13598318
120	0xbd1f7570	-0.038930357
121	0xbd735e3b	-0.059416037
122	0xbdc0b228	-0.094089806
123	0xbb459df1	-0.0030153955
124	0xbdb5fcc0	-0.08886099
125	0xbddf0a0b	-0.108905874
126	0x3d8c233d	0.06842659
127	0x3c39dba9	0.011343875
128	0xbd95642c	-0.07294497
129	0xbd0f4ed8	-0.0349873
130	0xbd0d7e12	-0.03454406
131	0xbdfc171f	-0.123090975
132	0xbe3d32bc	-0.18476385
133	0xbe1a3895	-0.15060647
134	0xbdb5e9c8	-0.08882481
135	0xbdacd62c	-0.084392875
136	0x3c822e0e	0.015891101
137	0x3d6a82af	0.057253536
138	0xbd6887e0	-0.056770205
139	0xbdacad1c	-0.084314555
140	0xbd7d2ab1	-0.06180829
141	0xbe2bad52	-0.16765335
142	0xbd7e5244	-0.062090173
143	0xbd0f984d	-0.035057355
144	0xbda5b0ca	-0.080903605
145	0xbd899db0	-0.0671953
146	0xbd2a6648	-0.04160145
147	0xbd48f707	-0.04906371
148	0xbcc426c4	-0.023944266
149	0x3dd5d83e	0.104416355
150	0xbc0b6039	-0.008506828
151	0x3d0d4338	0.034487933
152	0x3d9bb5d1	0.07603038
153	0xbd2c661a	-0.04208956
154	0xbd3db258	-0.04631266
155	0x3d979f7d	0.07403467
156	0xbdd34c8f	-0.10317337
157	0xbe161cf4	-0.14659482
158	0xbe25e6c2	-0.16201308
159	0xbdbcddbf	-0.09221982
160	0xbcd24ae1	-0.02567047
161	0xbdb83ff3	-0.08996572
162	0x3d9b63c2	0.07587387
163	0x3dbd4488	0.09241587
164	0xbe5ffc69	-0.2187363
165	0xbd4f6810	-0.05063635
166	0xbdf78bf6	-0.12087242
167	0xbde37042	-0.11105396
168	0xbd8bbd27	-0.06823187
169	0xbb72e0e4	-0.0037060315
170	0xbb939269	-0.0045035374
171	0xbc320cfa	-0.010867352
172	0xbd4d68e2	-0.050148852
173	0xbd087e8c	-0.03332381
174	0x3d2e556b	0.04256193
175	0x3e066b77	0.13126932
176	0xbdadd895	-0.08488575
177	0xbd8f1872	-0.069870844
178	0xbd59151d	-0.05299865
179	0xbdbb1f3a	-0.09136815
180	0xbdbff91b	-0.09373685
181	0xbd937db1	-0.07201708
182	0x3d87d4c8	0.06632382
183	0xbd2b5140	-0.041825533
184	0xbd80fb50	-0.06297934
185	0x3d90d07a	0.07071014
186	0x3d9dd660	0.077069044
187	0xbd340302	-0.04394818
188	0xbd125cb4	-0.03573294
189	0x3d09b233	0.03361721
190	0xbbca0d32	-0.006166124
191	0xbd9f816d	-0.07788358
192	0xbc771f50	-0.015083149
193	0x3daa3487	0.083108
194	0x3d41e069	0.047333155
195	0xbdd551dd	-0.10416005
196	0x3e41a7b9	0.18911637
197	0x3e489611	0.19588496
198	0x3ce7c71d	0.028293187
199	0x3d982d77	0.07430547
200	0xbe160c88	-0.14653218
201	0xbe0a9e5d	-0.13536973
202	0xbcff301f	-0.031150876
203	0xbb7ff39c	-0.0039055115
204	0xbdd14267	-0.10217743
205	0x3d03365d	0.032034267
206	0x3cca19d6	0.024670523
207	0xbc2f17e4	-0.010686848
208	0x3ded7abb	0.115956746
209	0xbdece1e2	-0.11566521
210	0xbc4c752b	-0.012479107
211	0xbda4c9c6	-0.08046298
212	0xbdf1a219	-0.11798496
213	0x3deb6fb5	0.11495916
214	0x3d44aea1	0.0480181
215	0x3d032762	0.03201998
216	0x3ce196dc	0.027537756
217	0xbe069c13	-0.13145475
218	0x3dbca861	0.09211803
219	0xbd1f1cf5	-0.038845975
220	0xbe0d2070	-0.13781905
221	0xb8722248	-5.7729223e-05
222	0xbd5e07ef	-0.054206785
223	0xbe629c04	-0.22129828
224	0x3da85ba8	0.08220607
225	0xbd5ef543	-0.05443312
226	0xbccba801	-0.024860384
227	0x3e2b3a51	0.16721465
228	0x3d2b3aa0	0.041803956
229	0xbba214be	-0.0049463203
230	0x3e35a452	0.17738464
231	0x3c06f642	0.008237423
232	0xbdd6b504	-0.10483745
233	0xbb986bef	-0.0046515386
234	0x3e21c015	0.1579593
235	0xbe3fd7b5	-0.1873463
236	0x399acac0	0.0002952423
237	0x3dd12f72	0.102141276
238	0xbe2a9ba1	-0.1666093
239	0xbdf021d4	-0.11725202
240	0x3d2e6550	0.042577088
241	0xbe275aab	-0.16343181
242	0xbd2c9054	-0.04212983
243	0x3da3fa27	0.08006697
244	0x3e342e90	0.17595887
245	0xbc8c994b	-0.01716294
246	0xbd1c7d4a	-0.038205422
247	0x3cc066ee	0.02348658
248	0xbda0e599	-0.07856292
249	0xbd991a5d	-0.074757315
250	0xbe43075f	-0.1904578
251	0xbe4c71e0	-0.19965315
252	0xbc5c1eb3	-0.013435054
253	0x3e0b0a0a	0.13578048
254	0x3d6fcd92	0.058545657
255	0xbd90a7bc	-0.07063243

b6 f4 [32]
0	0x3d4e6c9a	0.05039654
1	0xbe373dcd	-0.17894669
2	0xbe74da90	-0.239115
3	0x3c133bce	0.0089864265
4	0xbebcf332	-0.36904293
5	0x3da0a282	0.07843496
6	0xbc5f6362	-0.013634535
7	0xbb940be3	-0.0045180186
8	0xbc1aaa99	-0.009440088
9	0xbd4926a7	-0.049109127
10	0xbd0cc98b	-0.034371894
11	0xbe0ea0cd	-0.13928528
12	0xbda9daa5	-0.08293656
13	0xbe97b9ea	-0.2963403
14	0xbef44bcd	-0.4771408
15	0xbd0a20a7	-0.033722546
16	0x3e89e325	0.2693111
17	0xbe9e7ef4	-0.30956233
18	0x3e25ec2b	0.16203372
19	0x3ec21087	0.37903234
20	0xbd338df9	-0.043836568
21	0x3ece52ac	0.4029745
22	0xbe1bf3b5	-0.15229686
23	0xbd94236a	-0.07233317
24	0xbd926b96	-0.07149427
25	0x3d1e3659	0.03862605
26	0x3e7d3fdb	0.2473139
27	0xbe05d842	-0.13070777
28	0xbeb367e6	-0.35040206
29	0xbd7a4a48	-0.061105996
30	0x3e686e4c	0.22698325
31	0x3e8a4245	0.27003685

W7 f4 [48, 32, 3, 3]
0	0x3cfc32f0	0.030786008
1	0x3d0632db	0.032763343
2	0xbc6a3790	-0.014295474
3	0x3c296e65	0.0103412615
4	0x3cff126e	0.031136718
5	0xbc7c5366	-0.015400743
6	0xbdca51f9	-0.09878916
7	0xbd18d286	-0.037310146
8	0x3da810b5	0.082063116
9	0xbd8d4845	-0.0689855
10	0x3e1d235b	0.15345518
11	0xbd630712	-0.055426665
12	0xbda688b0	-0.0813154
13	0xbd512592	-0.05106122
14	0xbdb7e771	-0.08979691
15	0x3d057ddd	0.032590736
16	0xbe3a20c8	-0.18176568
17	0x3d894b72	0.06703843
18	0xbdd87cc9	-0.10570676
19	0x3e226252	0.15857819
20	0xbd02dae0	-0.031947017
21	0xbe5766a3	-0.21035247
22	0x3e363d0d	0.17796727
23	0xbcbc1348	-0.022958413
24	0xbdd791d7	-0.105258636
25	0x3ec7514d	0.38929215
26	0x3c10a988	0.008829482
27	0xbce50075	-0.02795432
28	0xbd1c2def	-0.038129743
29	0x3c4b285f	0.012399762
30	0x3d293c38	0.041317195
31	0xbda6ebd3	-0.08150449
32	0xbe730efb	-0.23736183
33	0xbc8f72ce	-0.017510798
34	0xbdbf913f	-0.09353875
35	0xbd2935a3	-0.041310918
36	0xbde24b9d	-0.11049578
37	0x3c181ef1	0.009284721
38	0xbdac9fee	-0.08428942
39	0xbc671ecc	-0.014106464
40	0xbd29290e	-0.04129892
41	0x3e87fcbe	0.26560014
42	0xbd3276f7	-0.043570485
43	0x3bd9835e	0.0066379746
44	0x3de73276	0.112889215
45	0x3c08f461	0.008359046
46	0xbd341362	-0.043963797
47	0x3d6cf375	0.057849366
48	0xbde9b4e2	-0.11411454
49	0xbe122e70	-0.14275527
50	0x3e1e2ba5	0.15446337
51	0x3d403b02	0.046931274
52	0xbe60ae86	-0.21941575
53	0x3ddde0ad	0.10833869
54	0x3d06996a	0.03286115
55	0xbd594751	-0.05304653
56	0x3c034fd2	0.008014636
57	0x3de61f45	0.11236433
58	0x3e12a2a4	0.14319855
59	0x3dbb71f7	0.091525964
60	0xbe0cc47c	-0.13746828
61	0x3e19906d	0.149965
62	0x3d7838d3	0.060601067
63	0xbe16e638	-0.14736259
64	0x3df65495	0.120278515
65	0x3d4b3214	0.049608305
66	0xbd9641a9	-0.073367424
67	0x3dad5c05	0.08464817
68	0x3dae46f0	0.08509624
69	0x3d16fe7e	0.036863796
70	0xbc43c1fe	-0.011948107
71	0xbcee491b	-0.029087594
72	0x3c199b42	0.009375395
73	0xbd43b3f4	-0.04777904
74	0x3d0ce619	0.034399126
75	0x3e07a276	0.13245568
76	0xbe26f8a0	-0.1630578
77	0xbd6625bc	-0.05618833
78	0xbd6216e9	-0.05519763
79	0xbd8a45e7	-0.06751614
80	0x3ca7f7b0	0.020503849
81	0xbd9a8099	-0.07544059
82	0xbc9ca0bb	-0.019119611
83	0x3d14a93d	0.03629421
84	0xbe19ea35	-0.15030749
85	0xbcd43289	-0.025903003
86	0x3de2a6b4	0.11066952
87	0xbcd0033a	-0.025392164
88	0x39d02148	0.00039697648
89	0xbdb4b00d	-0.088226415
90	0xbe0c741e	-0.1371617
91	0xbb1dc68d	-0.0024074644
92	0x3dd0048f	0.101571195
93	0xbe0e139e	-0.13874671
94	0xbd0937a5	-0.033500332
95	0xbccb2e66	-0.024802398
96	0xbe2865b5	-0.16445048
97	0x3e169146	0.14703855
98	0xbacdd58d	-0.0015703902
99	0xbdd003f8	-0.10157007
100	0xbbb8a1c0	-0.0056345165
101	0xbdc9da3b	-0.09856077
102	0xbd434ce7	-0.04768076
103	0xbd71af0c	-0.05900483
104	0xbb8c10e4	-0.0042744745
105	0xbcb770c0	-0.02239263
106	0xbd96605d	-0.073425986
107	0xbc15dfc7	-0.009147591
108	0x3d732df3	0.059369992
109	0xbd8aa5c0	-0.067698956
110	0x3c8cf52b	0.017206749
111	0x3dfdc641	0.123913296
112	0x3e1d9a2c	0.15390843
113	0xbd818467	-0.06324082
114	0xbe029ad6	-0.12754378
115	0xbd3fb3e9	-0.046802435
116	0x3d958ccf	0.07302248
117	0x3dcf0857	0.101090126
118	0x3c4e17fb	0.01257896
119	0xbd9101c7	-0.07080417
120	0x3d40f2b4	0.04710646
121	0xbe26799f	-0.16257332
122	0xbd602b84	-0.054729
123	0xbdb8b218	-0.09018344
124	0xbd917673	-0.071026705
125	0xbda3ae87	-0.07992273
126	0x3e4eafe3	0.20184283
127	0xbc78a057	-0.015174947
128	0x3e04d274	0.12970906
129	0x3dc84824	0.09779385
130	0x3e368488	0.17823994
131	0xbe017d4e	-0.12645456
132	0xbd9d006a	-0.076660946
133	0xbd168ea0	-0.03675711
134	0xbdecb1a2	-0.11557318
135	0x00015db1	1.25446e-40
136	0x00019167	1.43996e-40
137	0x8000308d	-1.7417e-41
138	0x80006d6b	-3.9252e-41
139	0x80006b1c	-3.8424e-41
140	0x00004ea6	2.8214e-41
141	0x00003948	2.0549e-41
142	0x80017b2a	-1.36018e-40
143	0x800147ed	-1.17638e-40
144	0xbc996f7a	-0.018729914
145	0x3be77f74	0.007064754
146	0xbb88d776	-0.0041760756
147	0x3bac8e76	0.005266006
148	0xbc8b8869	-0.017032819
149	0x3c1aa8f9	0.0094397
150	0x3be6dd53	0.007045427
151	0x3d23e0b3	0.04000921
152	0xbdc643e3	-0.09680917
153	0x3d41618d	0.047212172
154	0xbdfc1bab	-0.12309965
155	0xbde88823	-0.11354091
156	0xbd995cfc	-0.074884385
157	0x3dd70e02	0.10500719
158	0x3d52602c	0.051361248
159	0xbc531b9f	-0.012885003
160	0xbc8c34d1	-0.017115029
161	0x3d15ffb3	0.036620807
162	0x3e0307e6	0.12795982
163	0x3e2efa32	0.1708763
164	0x3d57f1ff	0.05272102
165	0xbde1902d	-0.110138275
166	0xbc3059b6	-0.010763576
167	0xbda72501	-0.08161355
168	0x3d8d77a6	0.06907587
169	0x3d3f4e80	0.046705723
170	0x3cb43cd0	0.022001654
171	0xbc7e48ad	-0.015520257
172	0xbd965cfc	-0.07341954
173	0xbd9148d0	-0.07093966
174	0x3d8a7d1d	0.06762145
175	0xbe19a6d1	-0.15005042
176	0xbd5517e5	-0.05202474
177	0x3dec4252	0.11536087
178	0xbde8c002	-0.113647476
179	0xbd133c63	-0.03594626
180	0x800097b0	-5.4415e-41
181	0x800009fd	-3.583e-42
182	0x80009813	-5.4554e-41
183	0x00018a9b	1.41558e-40
184	0x800002d3	-1.013e-42
185	0x00000392	1.281e-42
186	0x0000cc20	7.3226e-41
187	0x80000a82	-3.77e-42
188	0x00000477	1.602e-42
189	0x3e6a953e	0.22908494
190	0xbdaf89ab	-0.0857118
191	0xbe415c0b	-0.18882768
192	0x3e20b24f	0.1569302
193	0x3dd55d3d	0.104181744
194	0xbe89e09b	-0.26929173
195	0xbb1213c7	-0.002228962
196	0xbd2a6799	-0.041602705
197	0xbe7b85ef	-0.2456281
198	0x3cefd339	0.029275523
199	0xbd18bb1b	-0.037287813
200	0x3d87d7d5	0.066329636
201	0x3d1d8dfc	0.038465485
202	0xbe070a1f	-0.13187455
203	0xbc82e630	-0.015978903
204	0xbdb53a38	-0.08848995
205	0xbe7e271b	-0.24819605
206	0xbd910dd6	-0.07082717
207	0xbded1652	-0.11576523
208	0xbc8f402f	-0.01748666
209	0x3d262036	0.040558062
210	0xbd16332d	-0.0366699
211	0xbd47eee9	-0.048811827
212	0x3d8bbe89	0.06823451
213	0x3ded8a04	0.1159859
214	0xbd9c9b93	-0.07646861
215	0xbe8137fa	-0.2523802
216	0x3cdcbc9a	0.026945401
217	0x3dab9e11	0.08379758
218	0x3da4d64c	0.080486864
219	0x3cb769e9	0.02238937
220	0xbd75b929	-0.059991036
221	0x3b27dc6a	0.0025613555
222	0x3e296b3c	0.16544813
223	0x3dac35f5	0.08408729
224	0x3e1935a7	0.14961873
225	0xbde458ef	-0.11149775
226	0xbcd2572c	-0.025676332
227	0xbdbe7be7	-0.09300976
228	0x3dfd6a1c	0.123737544
229	0xbce7ada8	-0.028281048
230	0xbce0f369	-0.027459817
231	0xbd7deaa2	-0.06199134
232	0xba2c56e4	-0.0006574227
233	0x3ddbd42b	0.10733827
234	0x3c85ef1f	0.016349373
235	0xbda723ef	-0.08161151
236	0xbdc52d4b	-0.096277796
237	0xbd3d9d13	-0.046292376
238	0xbaf166f6	-0.0018417526
239	0x3bc2b8f1	0.005942457
240	0xbaec135a	-0.0018011138
241	0xbdd215d8	-0.102580726
242	0x3dc5c519	0.09656734
243	0x21b5e714	1.2326203e-18
244	0x2ffb8c0c	4.5756143e-10
245	0x31761685	3.5810512e-09
246	0xa620cafc	-5.5786246e-16
247	0xb4e72df5	-4.306054e-07
248	0xb3d64d7e	-9.979247e-08
249	0x1da2568d	4.2970534e-21
250	0x3288df39	1.5933994e-08
251	0xb61dcc2a	-2.3513662e-06
252	0xbd842047	-0.06451469
253	0xbd990834	-0.07472268
254	0xbd27b018	-0.04093942
255	0x3c02703b	0.007961328

b7 f4 [48]
0	0xbe8c2cc4	-0.27377903
1	0x3dbdfd61	0.09276844
2	0x3cf80830	0.030277342
3	0x3e9a4560	0.30131054
4	0x3e8d8fe0	0.2764883
5	0x3ea5bbf9	0.32369974
6	0x3e8e8e7e	0.27843088
7	0xbdb1a0b8	-0.08673233
8	0x3e0a52d5	0.1350816
9	0x3e898858	0.26861835
10	0x3ecd5b13	0.40108547
11	0x3eb73604	0.35783398
12	0x3f189bd1	0.59612757
13	0x3e024d1d	0.12724729
14	0x3d78ddad	0.06075828
15	0x3e9e040f	0.3086247
16	0xbb14a79a	-0.0022682906
17	0xbdde6f5a	-0.108610824
18	0x3cea4e15	0.028601686
19	0x3f067dc6	0.52535665
20	0xbe023b24	-0.12717873
21	0xbd45b880	-0.048271656
22	0x3e700564	0.23439556
23	0x3efa47f7	0.4888303
24	0x3eaf7cb6	0.34274834
25	0xbd08aaf0	-0.033366144
26	0xbe1572c5	-0.14594562
27	0xbd0e2b97	-0.03470954
28	0x3d749b4f	0.059718426
29	0xbe024add	-0.1272387
30	0x3eaf45ab	0.3423284
31	0x3e73f4be	0.2382383
32	0xbd0711c8	-0.032975942
33	0xbd6f5257	-0.058428135
34	0x3e5ea7e0	0.21743727
35	0x3ee61b22	0.44942576
36	0x3e8100c5	0.251959
37	0x3f0b7140	0.5446968
38	0x3d237b4e	0.039912514
39	0xbe8f26fa	-0.27959424
40	0x3dfa2fb7	0.12216132
41	0xbea19c0d	-0.3156437
42	0xbd61e145	-0.055146474
43	0x3ecc0b47	0.39852354
44	0xbdc0fbb2	-0.09423007
45	0x3ea80b76	0.32821244
46	0x3ed2fe49	0.4120963
47	0x3add665f	0.0016891471
