A3/overfit_deepconvnet.pth (torch, 112645 bytes, 10 tensors)

W1 f4 [8, 3, 3, 3]
-0.1490485 -0.1149005 -0.3276236 -0.056257997 -0.086020604 -0.10082857 -0.10114814 -0.07501483
-0.09988059 -0.09467863 -0.23874763 0.17330623 -0.039973028 -0.089454845 0.1072406 0.093097396
-0.03266851 0.16980815 0.084000066 0.037797865 -0.08927087 -0.2073137 -0.1371906 -0.13406827
0.005657541 0.0019890382 0.2528252 0.17224255 0.042562347 -0.10410359 0.23574889 0.018120453
-0.08825161 0.06265482 -0.021965161 -0.08993416 0.033626508 0.043782566 0.032242566 0.25505072
0.043699004 0.01567029 0.26237375 0.13323233 -0.036618456 0.19981764 -0.10864383 -0.09253455
0.07382075 0.07440682 0.0150589775 0.079212524 0.14345312 -0.13347134 -0.03677727 0.034963626
-0.046511248 -0.08807596 -0.09412223 0.08821418 0.014316511 0.013724731 0.071859255 -0.21329843
-0.09151246 -0.17131758 -0.009523126 -0.2123489 -0.17143804 -0.069253 0.010170283 -0.08145901
-0.16500932 -0.12390546 0.014845703 -0.25574043 -0.047005847 -0.060678776 -0.03874301 -0.1068227
-0.066502064 0.0957669 -0.34869877 -0.0310688 0.05187239 0.16518573 -0.05174046 0.055186715
0.031220919 -0.08465591 0.12974402 0.12190265 -0.07029047 0.12947063 0.13265242 -0.16738947
0.05743954 -0.13575512 -0.16292532 -0.02173952 -0.041659385 -0.07950733 0.12736349 0.10034481
-0.22600867 0.11242071 0.08999819 -0.15189594 0.023457263 -0.04362549 -0.19925705 -0.015471033
0.2237544 0.09268644 0.08998475 -0.14456204 -0.025927281 -0.19474317 0.12798372 -0.018822616
0.21970668 -0.06791802 0.21322422 -0.031602643 -0.09638837 -0.015804742 -0.10336771 -0.07087344
-0.15194586 -0.08229236 -0.07291383 0.22740684 -0.16950129 0.09817888 -0.2315213 -0.14885831
0.0049589425 -0.06996414 -0.06578026 -0.031409305 0.056847405 -0.083851 0.019957436 -0.0966754
-0.114526115 0.028233984 0.010357136 0.10154214 -0.033975735 0.009862684 -0.08972757 0.009756534
0.020889813 -0.19170319 -0.0012652309 0.0005385664 0.07481506 0.16379775 0.12177999 -0.13343576
0.061127756 -0.01944107 -0.18540305 0.041715864 0.071918294 -0.13481829 -0.20456383 0.15590402
-0.13621089 0.009039647 0.02828002 -0.0639434 -0.27884358 0.08754035 -0.20596343 0.107073665
0.06304965 -0.11427116 0.035568494 0.073335946 -0.21841033 0.13841116 -0.0787285 -0.058514908
-0.11524452 0.11393794 -0.15115501 -0.0223936 0.07084879 -0.051497262 -0.14510472 -0.1185688
-0.09619984 -0.22001761 -0.17655262 -0.12009247 -0.052148174 -0.061194766 -0.21345168 -0.13282226
-0.1333136 -0.23407309 -0.2031852 -0.12146872 -0.14718606 -0.31033918 -0.13485017 -0.060299296
-0.03825449 0.053913713 -0.07275207 -0.039958097 -0.20535715 0.10032098 -0.027249012 -0.20941323
00000000: 2ca0 18be f450 ebbd 48be a7be c96e 66bd
00000010: 922b b0bd 367f cebd c226 cfbd 60a1 99bd
00000020: 328e ccbd dfe6 c1bd 427a 74be 3077 313e
00000030: c2ba 23bd 1a34 b7bd f6a0 db3d d9a9 be3d
00000040: 6acf 05bd 30e2 2d3e 3a08 ac3d efd1 1a3d
00000050: a5d3 b6bd 0b4a 54be b17b 0cbe 3149 09be
00000060: e562 b93b 865a 023b 4e72 813e 5a60 303e
00000070: db55 2e3d 4334 d5bd 2868 713e 5871 943c
00000080: 43bd b4bd 2c51 803d 48f0 b3bc 672f b8bd
00000090: f3bb 093d 5955 333d c810 043d 0296 823e
000000a0: bafd 323d fb5e 803c da55 863e 0e6e 083e
000000b0: 3cfd 15bd ff9c 4c3e a880 debd c182 bdbd
000000c0: 552f 973d 9a62 983d eeb9 763c 2d3a a23d
000000d0: 60e5 123e b6ac 08be c3a3 16bd 0536 0f3d
000000e0: 9482 3ebd 2b61 b4bd 28c3 c0bd a3a9 b43d
000000f0: cd8f 6a3c b2dd 603c f22a 933d e76a 5abe
00000100: e26a bbbd e06d 2fbe e306 1cbc fd71 59be
00000110: 748d 2fbe 84d4 8dbd 42a1 263c fbd3 a6bd
00000120: 34f8 28be 25c2 fdbd 643b 733c 69f0 82be
00000130: 3489 40bd 4f8a 78bd feb0 1ebd dcc5 dabd
00000140: 3c32 88bd 7021 c43d a588 b2be ff83 febc
00000150: 2578 543d 7326 293e ceed 53bd 770b 623d
00000160: 03c3 ff3c 1460 adbd 9edb 043e 19a8 f93d
00000170: 73f4 8fbd f393 043e 09d6 073e 2568 2bbe
00000180: b945 6b3d 6403 0bbe e5d5 26be 1417 b2bc
00000190: 08a3 2abd bdd4 a2bd 936b 023e 9481 cd3d
000001a0: d16e 67be d43c e63d f950 b83d 9c8a 1bbe
000001b0: 7229 c03c a4b0 32bd 0a0a 4cbe 377a 7dbc
000001c0: e01f 653e 63d2 bd3d ed49 b83d 1208 14be
000001d0: 7365 d4bc c16a 47be 2a0e 033e e331 9abc
000001e0: cafa 603e 9a18 8bbd 7357 5a3e c671 01bd
000001f0: 4467 c5bd f278 81bc 73b2 d3bd 1826 91bd
00000200: b297 1bbe e688 a8bd d953 95bd 57dd 683e
00000210: bf91 2dbe 0212 c93d eb13 6dbe 506e 18be
00000220: a07e a23b 5c49 8fbd cdb7 86bd 0ba7 00bd
00000230: d3d8 683d 13ba abbd c77d a33c c1fd c5bd
00000240: ab8c eabd f54a e73c fab0 293c 53f5 cf3d
00000250: 242a 0bbd 1897 213c 17c3 b7bd dfd9 1f3c
00000260: 1d21 ab3c d74d 44be 1bd6 a5ba 942e 0d3a
00000270: a338 993d 99ba 273e ca67 f93d 62a3 08be
00000280: 1961 7a3d e142 9fbc 4cda 3dbe 41de 2a3d
00000290: e649 933d ce0d 0abe 2e79 51be 4ea5 1f3e
000002a0: de7a 0bbe 071b 143c 80ab e73c c2f4 82bd
000002b0: 96c4 8ebe 5b48 b33d 14e8 52be 7049 db3d
000002c0: 2d20 813d ff06 eabd 45b0 113d 2831 963d
000002d0: f5a6 5fbe a8bb 0d3e 683c a1bd 54ad 6fbd
000002e0: 5205 ecbd 4b58 e93d 61c8 1abe c872 b7bc
000002f0: 2c19 913d cbee 52bd 5596 14be 33d4 f2bd
00000300: 6c04 c5bd 4c4c 61be 36ca 34be 0af3 f5bd
00000310: 5399 55bd 5da7 7abd 1493 5abe 8f02 08be
00000320: 5c83 08be dbb0 6fbe c80f 50be 98c4 f8bd
00000330: f1b7 16be c7e4 9ebe 2a16 0abe 65fc 76bd
00000340: bdb0 1cbd a0d4 5c3d 0aff 94bd 1aab 23bd
00000350: 2549 52be 1675 cd3d 5239 dfbc 6c70 56be

b1 f4 [8]
0.028481945 0.07809262 0.029856035 0.034461446 0.02592453 0.027470984 0.053349905 0.043071114
00000000: f852 e93c 06ef 9f3d a594 f43c 7227 0d3d
00000010: ae5f d43c d40a e13c 6e85 5a3d 566b 303d

W2 f4 [16, 8, 3, 3]
0.015831882 -0.041179296 0.110073805 -0.06316551 0.19204366 0.15364298 -0.0031268585 -0.07842709
0.09907907 0.15207799 -0.09024282 -0.050713602 0.11693303 0.056637432 -0.10496828 0.015178116
0.00028817847 0.20381187 -0.08048827 0.20009756 0.06853916 -0.034203503 0.08950796 0.051436927
-0.04779891 -0.041891843 0.13163841 0.021329269 0.13008761 0.07421815 0.26826113 0.06929847
-0.02564647 -0.006611966 0.36709544 0.032582723 -0.011682629 0.058658425 0.2725597 0.22454801
0.0052703186 0.04787984 0.036838472 0.034070186 0.3088794 -0.03816264 -0.0073608053 0.072123885
-0.15745316 -0.09149755 0.23815532 0.03195391 -0.16764428 0.31324333 0.07155007 -0.1469076
-0.01402345 -0.04986519 0.16364478 0.06780123 -0.10171079 0.101926446 0.1149582 0.057622246
0.25924286 -0.0821268 -0.009478658 0.044268712 0.07301781 -0.104333006 -0.14707449 0.065978
-0.027208729 0.081839 -0.1430465 -0.08092527 0.13309388 -0.17762323 0.027445877 0.020169288
-0.069318905 0.055659417 -0.0005179131 0.037883583 0.12869917 0.03753272 -0.08278105 0.08956699
0.018293135 0.026133165 -0.037618443 -0.045575812 0.057322357 0.0102916695 0.21857384 -0.048993837
-0.074168935 0.093189254 -0.020225944 0.028207827 0.046251047 -0.07855384 0.08719431 -0.055045467
-0.07272046 0.088985756 0.14176676 -0.057886254 -0.09629563 -0.11524713 -0.1861473 -0.056088522
-0.08327597 -0.03433577 0.13061117 -0.13882133 0.056367904 -0.16843739 0.002904198 0.020199237
0.04720519 -0.06188521 0.045426365 0.16005763 0.01594517 0.026505986 0.10158112 -0.025511565
0.0822089 0.10882222 -0.05990848 0.18998925 -0.14446549 0.13348496 0.07576952 -0.023052797
0.16490695 0.116312616 -0.037540365 0.21123448 -0.056585994 0.20013815 0.31047574 0.14784135
0.11586328 -0.09167909 -0.05404573 -0.0039019366 -0.05848592 0.12384965 0.030811781 -0.16281544
-0.07198533 0.03053849 -0.042952318 0.047804106 0.07899889 0.033571176 0.036124032 -0.066541895
-0.07624331 0.06937622 -0.18373963 0.24477175 0.0021119297 0.017229706 0.09904231 0.053561702
0.053665586 -0.05903313 -0.17022738 0.2207917 0.03649018 0.17197268 0.1626047 -0.09828155
0.3448445 -0.031742062 -0.03773591 0.13398266 0.04678173 0.060936853 0.18542397 -0.07253067
0.03242753 0.0625522 -0.03444449 0.027222393 0.011490027 -0.0012084217 -0.02186352 0.09651625
0.10056307 -0.087987535 0.08732857 -0.05138349 -0.04385088 0.05083717 0.13449405 0.13096514
0.10378589 0.2239866 -0.0072919675 0.1334649 0.08217004 0.047566168 -0.13206184 -0.06458724
0.043111827 0.15137394 -0.05518024 0.06320163 -0.03173992 -0.1852701 -0.23323897 -0.057428245
0.09445065 0.029612169 -0.0007956047 -0.01400437 0.017321808 -0.021652939 -0.032623652 0.050521865
0.14560218 0.030061038 0.15765679 0.056067057 -0.050625786 0.1018332 -0.21960421 -0.2148831
-0.12459876 -0.11141213 -0.05966473 -0.13805823 -0.19927442 0.18933687 0.14929 0.05934534
0.14183576 0.21882704 0.036349844 0.1691718 -0.011895821 0.08232825 0.12180963 0.15969446
-0.10942649 -0.06098653 -0.0053697773 -0.12848477 -0.1007762 -0.019127518 -0.21607806 0.041984525
00000000: ddb1 813c 9fab 28bd 606e e13d eb5c 81bd
00000010: 18a7 443e 9654 1d3e fbeb 4cbb 629e a0bd
00000020: f8e9 ca3d 55ba 1b3e 3ad1 b8bd 11b9 4fbd
00000030: 967a ef3d a7fc 673d 9cf9 d6bd a2ad 783c
00000040: a916 9739 0fb4 503e 09d7 a4bd 60e6 4c3e
00000050: 425e 8c3d f918 0cbd f34f b73d 87af 523d
00000060: cac8 43bd c896 2bbd 38cc 063e b8ba ae3c
00000070: b035 053e afff 973d 8659 893e 5bec 8d3d
00000080: 8c18 d2bc 31a9 d8bb eff3 bb3e 7675 053d
00000090: 7f68 3fbc d143 703d f28c 8b3e eaef 653e
000000a0: a3b2 ac3b a71d 443d f0e3 163d 2e8d 0b3d
000000b0: 7125 9e3e 6e50 1cbd e932 f1bb b0b5 933d
000000c0: 673b 21be 1163 bbbd fdde 733e 1ae2 023d
000000d0: f1aa 2bbe 6e61 a03e d888 923d f26e 16be
000000e0: 9dc2 65bc 713f 4cbd 7f92 273e 5fdb 8a3d
000000f0: bf4d d0bd d0be d03d 346f eb3d 4e05 6c3d
00000100: 7bbb 843e 1932 a8bd 604c 1bbc 1c53 353d
00000110: 5d8a 953d 8bac d5bd b29a 16be 791f 873d
00000120: d7e4 debc 359b a73d c87a 12be 26bc a5bd
00000130: c349 083e dde2 35be 2dd6 e03c 103a a53c
00000140: 12f7 8dbd 21fb 633d 8fc4 07ba d12b 1b3d
00000150: b7c9 033e e9bb 193d 1c89 a9bd e66e b73d
00000160: 7cdb 953c 3815 d63c cc15 1abd b4ad 3abd
00000170: d9ca 6a3d 649e 283c d2d1 5f3e c3ad 48bd
00000180: e2e5 97bd 02da be3d e1b0 a5bc 1a14 e73c
00000190: bd71 3d3d d6e0 a0bd ee92 b23d 5b77 61bd
000001a0: 77ee 94bd 2a3e b63d 4e2b 113e 231a 6dbd
000001b0: a536 c5bd b006 ecbd 669d 3ebe 14bd 65bd
000001c0: 978c aabd aaa3 0cbd efbe 053e 2e27 0ebe
000001d0: 08e2 663d da7a 2cbe 5b54 3e3b df78 a53c
000001e0: 3b5a 413d 597b 7dbd ff10 3a3d 26e6 233e
000001f0: 729f 823c 1523 d93c c309 d03d a1fd d0bc
00000200: 245d a83d 2fde de3d 9862 75bd 8b8c 423e
00000210: c3ee 13be 48b0 083e 0d2d 9b3d 38d9 bcbc
00000220: 5edd 283e 4f35 ee3d edc3 19bd da4d 583e
00000230: b7c6 67bd 04f1 4c3e adf6 9e3e b963 173e
00000240: ba49 ed3d 3fc2 bbbd 0e5f 5dbd a2b7 7fbb
00000250: ef8e 6fbd e3a4 fd3d fd68 fc3c 17b9 26be
00000260: 0b6d 93bd db2b fa3c c5ee 2fbd 3dce 433d
00000270: 2cca a13d ee81 093d cbf6 133d 1e47 88bd
00000280: 7425 9cbd 1f15 8e3d 3e26 3cbe 72a5 7a3e
00000290: 4d68 0a3b 5025 8d3c b2d6 ca3d 8463 5b3d
000002a0: 72d0 5b3d b9cc 71bd 1650 2ebe 3817 623e
000002b0: ba76 153d 9b19 303e d981 263e d647 c9bd
000002c0: 758f b03e f703 02bd f890 1abd c032 093e
000002d0: 339e 3f3d ec98 793d c8df 3d3e f68a 94bd
000002e0: bbd2 043d 5e1b 803d aa15 0dbd 7f01 df3c
000002f0: ab40 3c3c e763 9eba 201b b3bc 50aa c53d
00000300: 03f4 cd3d cf32 b4bd 52d9 b23d 7f77 52bd
00000310: fb9c 33bd a33a 503d cfb8 093e ba1b 063e
00000320: b28d d43d be5c 653e 75f1 eebb 06ab 083e
00000330: c448 a83d bed4 423d 383b 07be 5146 84bd
00000340: 0796 303d c501 1b3e ad04 62bd db6f 813d
00000350: b801 02bd 72b7 3dbe 32d6 6ebe e139 6bbd
00000360: 586f c13d 3895 f23c 2190 50ba 9672 65bc
00000370: 77e6 8d3c 8161 b1bc 61a0 05bd 04f0 4e3d
00000380: bd18 153e 9142 f63c c870 213e 92a6 653d
00000390: fc5c 4fbd ed8d d03d eddf 60be 510a 5cbe
000003a0: a22d ffbd 0b2c e4bd 0163 74bd 235f 0dbe
000003b0: 980e 4cbe 86e1 413e 7adf 183e 1914 733d
000003c0: 653d 113e 3214 603e 93e3 143d 5f3b 2d3e
000003d0: b1e6 42bc b79b a83d 5477 f93d f286 233e
000003e0: ff1a e0bd 03cd 79bd f5f4 afbb 8391 03be
000003f0: c163 cebd 50b1 9cbc 9143 5dbe f7f7 2b3d

b2 f4 [16]
0.014613075 0.01770929 0.019815642 0.026114613 0.022694565 0.003662419 0.04494195 -0.0011384339
-0.0060345605 0.026512064 -0.009498606 0.025005996 0.005371231 0.042413525 0.015453378 -0.011694385
00000000: ae6b 6f3c 1313 913c 6a54 a23c 50ee d53c
00000010: f4e9 b93c 3205 703b 0d15 383d 8137 95ba
00000020: 90bd c5bb d42f d93c 0ba0 1bbc 60d9 cc3c
00000030: 2701 b03b ceb9 2d3d 2a30 7d3c ce99 3fbc

W3 f4 [32, 16, 3, 3]
0.24101886 -0.09575641 -0.0635466 0.030162819 0.010411467 -0.04234359 0.1437381 0.102071024
-0.07570037 -0.003132371 0.10840641 -0.016909702 -0.024549115 0.027187267 0.22740033 -0.14628269
-0.007492255 0.039289467 -0.14564493 0.03238852 0.07863377 -0.02291782 -0.14691523 0.092305064
0.19610436 -0.06550694 0.09775086 -0.072540484 0.09311805 -0.071289465 -0.09742871 0.24288021
0.1954079 0.020811833 0.049592644 0.2415855 0.036180533 -0.027861075 -0.037328374 -0.004339665
0.026305495 0.18561949 0.08279588 0.07069471 0.279285 -0.01789185 0.08565701 -0.014165715
0.023370847 0.12771457 0.13467474 0.029047456 -0.13721374 0.1525236 0.040299468 0.08712337
0.16293517 -0.06999494 0.08817689 -0.026690248 0.1339375 0.18186271 0.013169295 0.09077597
-0.124809265 -0.093671456 -0.39333382 0.10831794 0.02887715 -0.08467531 0.070952885 -0.04466841
-0.06110716 0.07078747 -0.23445214 -0.010756203 0.10720617 0.09650122 -0.10312723 -0.016402744
0.23616372 -0.086167865 0.050457224 0.18720523 -0.13246536 0.006651788 0.10520045 -0.24190094
0.033810336 -0.24631342 0.19078304 -0.15562797 -0.058933552 -0.09398079 -0.037682537 -0.095564865
0.067927636 0.19767259 -0.15774108 -0.19538261 0.017836858 0.05665583 0.075638235 0.059330884
0.11347609 -0.1115079 0.02175267 -0.18281314 0.041977048 -0.018674895 -0.0025208679 0.032785315
-0.0055389516 0.1018873 0.033619273 0.23166664 0.09268358 -0.043246288 0.00946 -0.037185367
-0.08290683 0.0015470644 0.23956259 0.14318874 0.23379435 0.042928156 0.11777428 -0.03278147
0.09644529 0.08650527 0.06448134 0.17550914 0.2586261 -0.01951212 0.08548415 -0.22677466
-0.13462685 0.12886436 0.10856749 -0.089061365 -0.13996266 0.076041035 0.15393004 0.11866345
0.03739084 0.13137485 -0.29307514 -0.014630214 0.17459874 0.09300927 0.014833245 0.20995046
-0.053593144 -0.04756008 0.03063465 -0.048550438 0.18266006 -0.009155331 0.21339233 -0.14257652
-0.01011885 -0.056219622 -0.020669319 0.14602266 -0.076127 0.27557045 0.07791935 0.1778077
0.010834143 0.17264143 0.16257542 0.1834059 0.02942949 -0.011247724 -0.12258596 -0.118580386
-0.029046027 0.16049641 -0.13821794 -0.13076426 0.010873654 -0.086689904 -0.15671313 0.073293835
-0.123087585 -0.14340366 -0.065930806 -0.0039086114 -0.057124034 0.021159124 -0.07408711 -0.022152044
-0.26457164 0.109081075 0.041407637 -0.026175061 0.07674536 0.22851664 0.012327938 -0.07461074
-0.04112752 0.16761401 -0.05337813 -0.1416394 0.082310766 -0.039162003 0.040403366 0.08686366
0.016884128 0.070339754 -0.07043434 0.06352399 -0.0015185629 -0.07234632 -0.05085204 0.12647533
0.044939168 -0.085107476 0.11213773 0.02942532 -0.09193554 0.102429 -0.007877457 0.0029711898
0.10230849 -0.117171735 0.019643748 -0.002214941 0.2935495 0.11214007 0.11724352 0.053010628
0.057926632 -0.080832146 0.070587605 0.01290536 0.02756331 -0.048290584 -0.021527924 0.15383244
0.093654424 0.2255652 -0.079955466 -0.0036802439 0.000561956 -0.09568384 0.015997924 0.12808497
0.06917178 -0.023655636 0.010399938 -0.11289799 -0.010671937 0.034425642 0.018836271 0.110678405
00000000: a6cd 763e f01b c4bd b824 82bd 0418 f73c
00000010: dc94 2a3c 7970 2dbd 1530 133e 9d0a d13d
00000020: cc08 9bbd 7748 4dbb 2e04 de3d 3786 8abc
00000030: 3a1b c9bc d5b7 de3c a2db 683e 21cb 15be
00000040: 9781 f5bb feed 203d f223 15be d3a9 043d
00000050: be0a a13d 27be bbbc f270 16be 700a bd3d
00000060: 95cf 483e 8128 86bd 9a31 c83d 1b90 94bd
00000070: adb4 be3d 3600 92bd b488 c7bd 97b5 783e
00000080: 0219 483e 947d aa3c a821 4b3d 3062 773e
00000090: 0a32 143d e93c e4bc a3e5 18bd c033 8ebb
000000a0: 9f7e d73c 0913 3e3e e390 a93d 63c8 903d
000000b0: 72fe 8e3e ee91 92bc f16c af3d 5117 68bc
000000c0: 3874 bf3c 9cc7 023e 2de8 093e eef4 ed3c
000000d0: c281 0cbe 262f 1c3e 0e11 253d bd6d b23d
000000e0: 7ad8 263e 8259 8fbd 1696 b43d 82a5 dabc
000000f0: e926 093e 383a 3a3e 07c4 573c c0e8 b93d
00000100: 009c ffbd d2d6 bfbd 0d63 c9be ccd5 dd3d
00000110: c68f ec3c 406a adbd bf4f 913d 39f6 36bd
00000120: 804b 7abd 05f9 903d 3914 70be c93a 30bc
00000130: e98e db3d 6ea2 c53d 5f34 d3bd 0c5f 86bc
00000140: e7d4 713e c778 b0bd 3cac 4e3d bab2 3f3e
00000150: 00a5 07be 3ef7 d93b 5573 d73d e1b4 77be
00000160: b57c 0a3d 9639 7cbe a15c 433e f05c 1fbe
00000170: 4f64 71bd 0079 c0bd 0159 1abd 83b7 c3bd
00000180: a51d 8b3d af6a 4a3e e186 21be 6112 48be
00000190: 9a1e 923c f20f 683d 38e8 9a3d f104 733d
000001a0: 2766 e83d 415e e4bd a832 b23c 5e33 3bbe
000001b0: 20f0 2b3d 18fc 98bc 2535 25bb e549 063d
000001c0: 1880 b5bb 4aaa d03d 5db4 093d 053a 6d3e
000001d0: e4d0 bd3d 0523 31bd 1efe 1a3c af4f 18bd
000001e0: 0ecb a9bd dec6 ca3a e54f 753e 12a0 123e
000001f0: c967 6f3e 6fd5 2f3d a433 f13d dd45 06bd
00000200: 1c85 c53d ad29 b13d cb0e 843d abb8 333e
00000210: a46a 843e e2d7 9fbc 5012 af3d 9e37 68be
00000220: 9fdb 09be 05f5 033e a258 de3d ce65 b6bd
00000230: 5f52 0fbe 67bb 9b3d d69f 1d3e d305 f33d
00000240: 2327 193d 2187 063e f20d 96be 91b3 6fbc
00000250: 03ca 323e a57b be3d 2407 733c 41fd 563e
00000260: 7c84 5bbd 5cce 42bd 84f5 fa3c d3dc 46bd
00000270: 3d0b 3b3e 3e00 16bc 8583 5a3e 94ff 11be
00000280: 88c9 25bc 8c46 66bd b452 a9bc f786 153e
00000290: 79e8 9bbd 9217 8d3e 2e94 9f3d 3913 363e
000002a0: b081 313c eac8 303e 2c7a 263e c2ce 3b3e
000002b0: 1d16 f13c 6048 38bc 590e fbbd 46da f2bd
000002c0: eff1 edbc 2c59 243e 0189 0dbe 11e7 05be
000002d0: 6927 323c 7a8a b1bd 6879 20be 141b 963d
000002e0: 5815 fcbd 69d8 12be bb06 87bd cf13 80bb
000002f0: e4fa 69bd e655 ad3c fcba 97bd 3478 b5bc
00000300: ef75 87be e665 df3d 0e9b 293d 156d d6bc
00000310: ac2c 9d3d 4400 6a3e 1ffb 493c 84cd 98bd
00000320: 5575 28bd 02a3 2b3e 07a3 5abd eb09 11be
00000330: 8c92 a83d 5668 20bd 007e 253d 93e5 b13d
00000340: 9550 8a3c 4a0e 903d e13f 90bd de18 823d
00000350: 840a c7ba 4f2a 94bd 3b4a 50bd c082 013e
00000360: 2212 383d d44c aebd 77a8 e53d 5e0d f13c
00000370: b348 bcbd 4cc6 d13d 7310 01bc 4bb8 423b
00000380: 1d87 d13d bcf7 efbd edeb a03c 8b28 11bb
00000390: 1f4c 963e b1a9 e53d 5f1d f03d ac21 593d
000003a0: 7a44 6d3d 538b a5bd 3c90 903d 0171 533c
000003b0: 73cc e13c 59cc 45bd 545b b0bc 4086 1d3e
000003c0: e4cd bf3d 90fa 663e b1bf a3bd 3f30 71bb
000003d0: 3b50 133a e4f5 c3bd 140e 833c b528 033e
000003e0: efa9 8d3d 77c9 c1bc 8064 2a3c 1037 e7bd
000003f0: 59d9 2ebc e701 0d3d 864e 9a3c 5cab e23d

b3 f4 [32]
-0.009694522 -0.019096797 0.0072835498 0.002685845 0.0009766219 0.0164596 -0.0043964945 0.021639448
-0.0018247677 0.035928365 -0.000983304 0.04993415 -0.0043560746 0.020249592 -0.0021745726 0.006895696
-0.035013553 -0.0060847085 -0.017376687 0.003346675 -0.0003660982 -0.020150455 0.02105695 0.015377294
0.03664341 -0.021129146 0.013913011 0.026722314 0.00763808 -0.009392114 0.053667527 0.0065061147
00000000: c6d5 1ebc e370 9cbc d8aa ee3b 0005 303b
00000010: fe01 803a 48d6 863c 7810 90bb 3645 b13c
00000020: 0b2d efba 9f29 133d 35e2 80ba c087 4c3d
00000030: 67bd 8ebb 79e2 a53c 4683 0ebb 4af5 e13b
00000040: 5f6a 0fbd 3c62 c7bb 8e59 8ebc e453 5b3b
00000050: def0 bfb9 9112 a5bc a07f ac3c 0cf1 7b3c
00000060: 6617 163d 0817 adbc 66f3 633c c1e8 da3c
00000070: dc48 fa3b 62e1 19bc 7bd2 5b3d 3f31 d53b

W4 f4 [64, 32, 3, 3]
0.053043287 -0.13071981 -0.08778559 0.044224188 -0.072848864 0.120563515 -0.043921083 0.06810636
0.02411843 -0.026758438 -0.13132706 0.046605937 -0.03998444 0.09839612 -0.05874635 0.07267572
0.13368806 0.15270445 -0.007816565 -0.09073317 0.091560036 0.05396487 0.12536724 -0.003786664
-0.19754235 0.042547606 -0.17853364 0.055287994 0.14746755 0.08872138 -0.119039536 0.11291687
-0.015651291 0.048769377 0.24579969 -0.107743576 -0.031578224 -0.25371128 -0.06432972 0.014594077
-0.0001354175 0.114693835 -0.060071506 -0.11537074 -0.10778845 0.018830843 -0.15761867 -0.12760848
0.113696635 0.13745911 0.108067304 0.108499154 0.22412145 -0.35185662 0.020821005 -0.022196833
-0.07972617 -0.14893612 -0.03212797 0.34750497 0.045774683 0.11890233 -0.05771805 0.13231614
0.21448761 0.07641188 -0.033903055 -0.16332053 0.023925781 0.03057433 -0.092575654 -0.0054331017
0.03452455 -0.07242714 -0.031427257 0.036789812 0.09827975 0.1575518 0.053533047 0.2426907
0.13819252 0.18420812 0.15111528 0.07389468 0.056772098 0.10543468 0.03330288 0.09191507
0.06174452 0.07081556 -0.07297457 0.036799207 -0.013864073 0.082966015 0.13837595 0.1572092
-0.13790499 0.16728349 -0.0011726412 0.0052500926 0.089254 -0.13208435 0.20579487 0.15148613
-0.07915163 0.22085536 0.023007644 0.017177153 0.055010665 0.18038449 0.062503755 0.13674557
0.16515957 0.04495474 0.0025485246 0.0728877 0.20455864 0.22946803 0.09084795 0.14262569
-0.060641844 -0.08492643 0.056371175 0.10299539 0.008471698 0.17486438 0.054994345 -0.07941686
-0.040042475 0.07676404 0.103673525 -0.004975178 0.010335294 0.019532753 -0.118544206 0.14594167
0.09369651 0.08466501 0.19095469 -0.034123458 -0.108901754 0.16749048 -0.035528276 0.20655437
0.242336 -0.19766325 -0.069922894 -0.16652623 0.17019044 0.0009369936 -0.06981603 0.09853923
-0.2151728 0.290721 0.17295435 -0.086421415 0.2215195 -0.09213097 0.12086896 -0.061330136
-0.08338717 0.19212382 -0.08087005 0.05607114 -0.09890366 -0.020455217 -0.014454592 0.09454352
-0.057656128 0.044549268 0.038194522 -0.021055903 0.051850207 -0.010166406 0.088166565 -0.08962815
-0.022673046 -0.12061926 0.04502404 0.006283534 -0.025557421 0.026630163 -0.048740156 0.06708222
-0.0793393 -0.18708724 0.027453646 0.034293786 0.22567452 -0.13773958 -0.13970146 -0.16234608
-0.043200452 -0.06913797 -0.038033955 0.05913833 0.039801333 0.011390429 0.11088178 -0.05226472
-0.041563246 -0.10776385 -0.092506126 -0.19305472 0.15310697 0.041172236 0.092531055 0.005922722
0.18325724 -0.026588632 -0.24466679 -0.06659371 -0.06966018 0.09133911 0.109281555 0.055372715
-0.15036897 -0.096014045 -0.07769477 -0.02848915 0.18616877 -0.015390044 0.08101103 0.012061089
0.007892636 -0.07985534 -0.06933406 -0.03785846 0.11306907 -0.15857945 0.011595794 0.037902027
0.010165757 -0.025266511 0.0487078 -0.083874546 0.1298643 -0.21050705 -0.021317834 -0.004112864
0.10721433 0.021814803 -0.00021406324 -0.010570297 -0.20246914 0.017958768 -0.00046525634 0.027222212
0.05003201 -0.19384226 -0.1202499 -0.16595736 -0.09759296 0.008433236 -0.1803399 0.006498101
00000000: eb43 593d 6adb 05be eec8 b3bd 6c24 353d
00000010: c931 95bd 01ea f63d 98e6 33bd 597b 8b3d
00000020: 0494 c53c 8334 dbbc 9a7a 06be dee5 3e3d
00000030: b9c6 23bd e883 c93d 03a0 70bd 02d7 943d
00000040: 86e5 083e 8e5e 1c3e 0d11 00bc 50d2 b9bd
00000050: d483 bb3d 440a 5d3d 4560 003e ae29 78bb
00000060: 8b48 4abe 6646 2e3d 86d1 36be aa75 623d
00000070: bc01 173e 8eb3 b53d 00cb f3bd f640 e73d
00000080: 2337 80bc 66c2 473d eab2 7b3e aaa8 dcbd
00000090: 2b58 01bd 72e6 81be 4dbf 83bd ff1b 6f3c
000000a0: dcfe 0db9 9ae4 ea3d 8a0d 76bd 7f47 ecbd
000000b0: 31c0 dcbd 2443 9a3c ca66 21be ccab 02be
000000c0: c8d9 e83d 15c2 0c3e 6452 dd3d ce34 de3d
000000d0: 1880 653e 8d26 b4be d090 aa3c 22d6 b5bc
000000e0: 7947 a3bd b682 18be 9e98 03bd 2cec b13e
000000f0: 3c7e 3b3d 1183 f33d c369 6cbd e27d 073e
00000100: a4a2 5b3e d57d 9c3d eedd 0abd 7f3d 27be
00000110: 0000 c43c 0477 fa3c 4e98 bdbd 2908 b2bb
00000120: 9d69 0d3d ae54 94bd deb9 00bd eab0 163d
00000130: e546 c93d 4255 213e 7845 5b3d e983 783e
00000140: 5782 0d3e 0ea1 3c3e f7bd 1a3e 1856 973d
00000150: dc89 683d 23ee d73d 9a68 083d f83d bc3d
00000160: d2e7 7c3d c007 913d b173 95bd c4ba 163d
00000170: 2326 63bc 16ea a93d 6db2 0d3e 73fb 203e
00000180: f736 0dbe 5d4c 2b3e 4fb3 99ba f808 ac3b
00000190: cdca b63d 1f41 07be e4bb 523e 2e1f 1b3e
000001a0: 401a a2bd e827 623e 877a bc3c 1ab7 8c3c
000001b0: dd52 613d b6b6 383e f801 803d 0807 0c3e
000001c0: 971f 293e 7622 383d 2605 273b 2546 953d
000001d0: d277 513e abf9 6a3e 7d0e ba3d 780c 123e
000001e0: 9563 78bd e8ed adbd 76e5 663d 3fef d23d
000001f0: e0cc 0a3c a60f 333e c041 613d 4fa5 a2bd
00000200: 9403 24bd 7736 9d3d c952 d43d d106 a3bb
00000210: 5d55 293c 2703 a03c 4ec7 f2bd bc71 153e
00000220: f5e3 bf3d d964 ad3d a089 433e 0ac5 0bbd
00000230: e207 dfbd a082 2b3e 1986 11bd fd82 533e
00000240: ee26 783e 3c68 4abe bc33 8fbd da85 2abe
00000250: 6746 2e3e 93a0 753a b5fb 8ebd f0ce c93d
00000260: 4256 5cbe 62d9 943e f21a 313e b6fd b0bd
00000270: 02d6 623e 29af bcbd 258a f73d 4f35 7bbd
00000280: e5c6 aabd 1bbc 443e 329f a5bd daaa 653d
00000290: 018e cabd b391 a7bc f4d2 6cbc 08a0 c13d
000002a0: d528 6cbd 4b79 363d dc71 1c3d 6e7d acbc
000002b0: e260 543d ff90 26bc ac90 b43d f78e b7bd
000002c0: d3bc b9bc 3b07 f7bd 216b 383d 1be6 cd3b
000002d0: cc5d d1bc 8027 da3c c2a3 47bd 6762 893d
000002e0: a57c a2bd cc93 3fbe 78e6 e03c a477 0c3d
000002f0: 3917 673e 9b0b 0dbe e60d 0fbe 0d3e 26be
00000300: f5f2 30bd 3598 8dbd 7ec9 1bbd 093b 723d
00000310: b906 233d ec9e 3a3c fd15 e33d 8813 56bd
00000320: 393e 2abd 4bb3 dcbd da73 bdbd 23b0 45be
00000330: 13c8 1c3e 38a4 283d ec80 bd3d 6513 c23b
00000340: c9a7 3b3e 67d0 d9bc ee89 7abe 4862 88bd
00000350: ffa9 8ebd 0010 bb3d 02cf df3d 80ce 623d
00000360: 53fa 19be 03a3 c4bd 701e 9fbd 1462 e9bc
00000370: 07a3 3e3e 8626 7cbc 1ce9 a53d e09b 453c
00000380: 1d50 013c 328b a3bd 04ff 8dbd 7911 1bbd
00000390: c290 e73d a762 22be 49fc 3d3c 283f 1b3d
000003a0: 468e 263c b7fb cebc d581 473d 6bc6 abbd
000003b0: 26fb 043e 298f 57be bda2 aebc 34c5 86bb
000003c0: 3093 db3d f5b4 b23c 2a76 60b9 0a2f 2dbc
000003d0: 1254 4fbe 441e 933c a6ed f3b9 1e01 df3c
000003e0: 5dee 4c3d 967e 46be 9445 f6bd baf0 29be
000003f0: d1de c7bd 8e2b 0a3c 06ab 38be 06ee d43b

b4 f4 [64]
0.000816758 -0.00058115955 0.0136218015 0.011140025 0.012306493 0.016722834 0.010648794 -0.00025970256
-0.0016671402 -0.017446509 -0.020024411 0.029848818 0.0071606264 -0.015894145 0.009884595 0.010338707
0.0009107225 -0.0129978275 0.012189946 -0.008239099 -0.004677645 0.0028040248 -0.013413485 -0.011796044
0.002470826 -0.0062941 -0.0038633486 0.017183919 -0.02348731 0.02680227 0.0058113537 0.016150312
0.024343446 0.0046181455 0.010653071 -0.005146084 0.0073632654 0.018212156 0.03894022 0.0052977386
0.024340784 0.0060265874 -0.008373093 0.025232403 0.0028144708 -0.0024880555 0.044497892 0.026418677
0.03292498 0.0062856404 -0.01681719 -0.01592582 0.011348581 0.02377647 0.010839857 0.013822856
0.010717227 0.012901123 0.011294656 -0.00065931486 0.001995295 -0.0026637523 -0.013530457 0.0056441245
00000000: b41b 563a f558 18ba fa2d 5f3c a784 363c
00000010: 2ca1 493c 53fe 883c 4778 2e3c b028 88b9
00000020: f183 daba fbeb 8ebc 3c0a a4bc 8285 f43c
00000030: b0a3 ea3b 7034 82bc fff2 213c ae63 293c
00000040: 8dbd 6e3a d7f4 54bc 57b8 473c 49fd 06bc
00000050: ee46 99bb bbc3 373b 3cc4 5bbc 3244 41bc
00000060: 95ed 213b bd3e cebb 3c30 7dbb 4ac5 8c3c
00000070: 7668 c0bc 6f90 db3c 2b6d be3b a94d 843c
00000080: e86b c73c d053 973b 388a 2e3c 7ba0 a8bb
00000090: 8c47 f13b a931 953c c87f 1f3d a798 ad3b
000000a0: 5366 c73c ae7a c53b 4c2f 09bc 2fb4 ce3c
000000b0: fc72 383b a50e 23bb 6c43 363d fb6b d83c
000000c0: 58dc 063d c6f7 cd3b 34c4 89bc de76 82bc
000000d0: 66ef 393c dfc6 c23c a899 313c 4379 623c
000000e0: 4f97 2f3c 3b5f 533c 390d 393c dfd5 2cba
000000f0: 7fc3 023b 5992 2ebb daae 5dbc 59f2 b83b

W5 f4 [256, 10]
-0.030333526 0.040259514 0.064991064 -0.024872627 -0.001920333 -0.121542625 0.030500548 0.08253475
-0.06605309 0.15477158 0.035020538 -0.062506065 -0.18037252 0.03399337 0.16280597 0.079877205
0.011106219 0.18282355 0.008481136 0.11235736 0.28108105 -0.123715274 -0.15469904 -0.15329121
0.07792973 -0.008810095 -0.15771142 -0.013574894 -0.016273262 0.07095591 0.0022987654 -0.00034335605
0.12952164 -0.042985428 -0.099232905 -0.08901777 -0.06277128 -0.29649347 0.03847999 0.090115875
-0.05323237 0.026926422 0.1314811 -0.1316658 0.022349413 0.14494066 -0.082833216 0.14755829
0.0045367763 0.15019386 -0.03017348 0.053375546 -0.021432262 0.11450217 -0.079980016 -0.030083867
0.090844326 0.13930878 -0.12739351 -0.118530124 -0.030481407 0.12401408 0.23193163 0.0028899582
0.01124741 -0.043964807 -0.13112403 0.07989295 0.10848649 -0.039026577 0.027156131 -0.08241751
0.24078503 -0.059425693 0.03725779 0.066649035 0.021393955 0.09322491 -0.24913223 -0.027153192
-0.12022079 -0.018415036 0.09825892 0.05269709 -0.06220016 -0.027027354 0.041823465 0.145226
0.00820981 -0.17059228 -0.20284718 -0.0033962668 -0.07727803 0.24228287 -0.03444923 -0.048882898
0.048788454 -0.19372612 0.030382318 -0.108844474 0.03340567 0.067612715 0.105595365 0.034020793
-0.14036094 -0.058142338 0.019194623 0.06791399 -0.1381743 0.061206684 0.0058221854 -0.06828925
-0.0102499565 -0.039541036 0.21674553 -0.20290612 0.12643379 -0.03915358 -0.09768401 -0.011053789
0.055992436 0.069362335 0.049264684 -0.019800816 0.04596954 -0.045536984 -0.13320488 0.057083096
-0.0128051825 0.019032653 -0.10208064 -0.27803966 0.13615459 0.05702123 0.0030583253 -0.042543504
0.022981752 0.11264807 -0.23554382 0.23760088 0.0854462 -0.057719667 -0.061339717 0.009607404
0.21129538 0.062643915 0.0026798358 -0.010738762 0.04410881 0.1251884 -0.047451273 0.06195981
-0.22295336 0.028419428 0.04704167 -0.047275964 0.05966555 -0.01841605 -0.19221418 -0.13506874
-0.06586234 -0.10799415 -0.04092934 -0.100965 0.13399005 0.19986531 0.01264448 -0.07418631
-0.31345254 0.12901172 -0.07207331 0.023522522 0.04989626 -0.04125859 -0.17608085 -0.08262815
-0.03754487 0.072601125 -0.12794136 -0.01983393 -0.0030644191 -0.051116947 -0.08064362 0.16788267
-0.09737464 0.2583921 -0.050835174 -0.12602194 -0.0859191 0.014430923 -0.017045893 -0.31657264
0.02054999 0.09292516 -0.05899613 0.07335455 -0.10955115 0.04032219 0.25012317 0.03398556
0.060714494 -0.03688012 0.111940384 -0.032559253 0.056642663 0.0825361 0.058895614 0.08036775
-0.07063546 -0.07058574 -0.017623337 -0.0362544 0.13409215 0.058491882 -0.10582479 -0.1898757
-0.08136343 -0.073799506 -0.117571466 -0.07810915 -0.03663139 0.011719053 0.2030812 -0.10649036
0.11087839 0.06965552 0.08006052 0.07180164 -0.13310103 -0.1350002 -0.036802363 -0.114439756
-0.15697551 0.05391905 -0.10784105 -0.2831252 0.16318677 -0.041847955 0.16650471 0.17697859
0.030658735 0.07705438 -0.038578693 -0.10308508 -0.00075909815 -0.2341816 -0.08139416 -0.12560406
-0.02433821 0.09906129 -0.008882963 0.0126766255 -0.15022065 -0.08559495 0.067416936 0.046155147
00000000: 047e f8bc 29e7 243d 091a 853d aec1 cbbc
00000010: afb3 fbba 57eb f8bd 49dc f93c fb07 a93d
00000020: d846 87bd 717c 1e3e b271 0f3d 2e03 80bd
00000030: 93b3 38be a23c 0b3d 9cb6 263e a996 a33d
00000040: dcf6 353c 1936 3b3e 76f4 0a3c 9e1b e63d
00000050: dbe9 8f3e 6f5e fdbd 6d69 1ebe 5ff8 1cbe
00000060: 9f99 9f3d 3758 10bc 1a7f 21be 3b69 5ebc
00000070: 814f 85bc 5551 913d e2a6 163b 7804 b4b9
00000080: 52a1 043e 7d11 30bd 9f3a cbbd f34e b6bd
00000090: 3b8e 80bd fecd 97be 329d 1d3d ac8e b83d
000000a0: 300a 5abd cd94 dc3c fba2 063e 66d3 06be
000000b0: 1e16 b73c 536b 143e 76a4 a9bd 8519 173e
000000c0: 3da9 943b 6bcc 193e 602e f7bc 51a0 5a3d
000000d0: b692 afbc 1d80 ea3d 90cc a3bd 7172 f6bc
000000e0: 970c ba3d f6a6 0e3e 7273 02be ecbf f2bd
000000f0: 25b4 f9bc 18fb fd3d 7c7f 6d3e 7465 3d3b
00000100: 0f47 383c 7114 34bd 6145 06be ea9e a33d
00000110: 2a2e de3d 55da 1fbd 8976 de3c 83ca a8bd
00000120: 5a90 763e 5b68 73bd a09b 183d 4a7f 883d
00000130: 6042 af3c b4ec be3d 851c 7fbe 5f70 debc
00000140: 5136 f6bd 21db 96bc f93b c93d e7d8 573d
00000150: 98c5 7ebd 7868 ddbc 154f 2b3d 20b6 143e
00000160: 7082 063c beaf 2ebe 2cb7 4fbe e793 5ebb
00000170: f243 9ebd 0019 783e a31a 0dbd 6f39 48bd
00000180: 67d6 473d 2460 46be 57e4 f83c dae9 debd
00000190: 62d4 083d 8978 8a3d 6242 d83d 6359 0b3d
000001a0: c7ba 0fbe a926 6ebd 0b3e 9d3c 7d16 8b3d
000001b0: 907d 0dbe dcb3 7a3d 08c8 be3b 3cdb 8bbd
000001c0: 6fef 27bc c8f5 21bd 8af2 5d3e 9fc6 4fbe
000001d0: dc77 013e 815f 20bd 8e0e c8bd f41a 35bc
000001e0: 5358 653d d70d 8e3d c4c9 493d 5235 a2bc
000001f0: 8e4a 3c3d fd84 3abd dc66 08be f7cf 693d
00000200: d4cc 51bc 5eea 9b3c a80f d1bd 375b 8ebe
00000210: 1c6c 0b3e 188f 693d 2f6e 483b 1942 2ebd
00000220: 3a44 bc3c 08b4 e63d 6632 71be a54d 733e
00000230: 6bfe ae3d 756b 6cbd 5b3f 7bbd 5f68 1d3c
00000240: d15d 583e 744b 803d 2fa0 2f3b a2f1 2fbc
00000250: 71ab 343d 6331 003e 445c 42bd 92c9 7d3d
00000260: e34d 64be dccf e83c c4ae 403d 71a4 41bd
00000270: dd63 743d 42dd 96bc cbd3 44be 764f 0abe
00000280: d6e2 86bd 092c ddbd 86a5 27bd bdc6 cebd
00000290: b034 093e 7ea9 4c3e cb2a 4f3c feee 97bd
000002a0: da7c a0be a61b 043e 2c9b 93bd 4eb2 c03c
000002b0: 0560 4c3d c4fe 28bd 8a4e 34be f338 a9bd
000002c0: a6c8 19bd e6af 943d 0f03 03be c47a a2bc
000002d0: 6cd4 48bb 0160 51bd 7b28 a5bd 6fe9 2b3e
000002e0: 5b6c c7bd f84b 843e 8b38 50bd e50b 01be
000002f0: 5af6 afbd ae6f 6c3c d4a3 8bbc cf15 a2be
00000300: 7458 a83c 8c4f be3d eda5 71bd e93a 963d
00000310: 5a5c e0bd e128 253d 2510 803e 7134 0b3d
00000320: c3af 783d 9c0f 17bd 0041 e53d da5c 05bd
00000330: 2302 683d b008 a93d 873c 713d d997 a43d
00000340: 53a9 90bd 428f 90bd d15e 90bc 7e7f 14bd
00000350: 744f 093e 2f95 6f3d abba d8bd c76e 42be
00000360: dfa1 a6bd 3224 97bd 4fc9 f0bd b1f7 9fbd
00000370: cc0a 16bd 4501 403c 85f4 4f3e 9e17 dabd
00000380: 3614 e33d 8ea7 8e3d c5f6 a33d bd0c 933d
00000390: a34b 08be 7e3d 0abe 13be 16bd 645f eabd
000003a0: 30be 20be 39da 5c3d c5db dcbd c9f5 90be
000003b0: 6f1a 273e c368 2bbd 3680 2a3e e039 353e
000003c0: 0728 fb3c b0ce 9d3d b104 1ebd 451e d3bd
000003d0: 37fe 46ba 4dcd 6fbe fbb1 a6bd 5a9e 00be
000003e0: ed60 c7bc a5e0 ca3d d989 11bc 9fb1 4f3c
000003f0: 71d3 19be 684c afbd e411 8a3d 2e0d 3d3d

b5 f4 [10]
-0.0011903545 -0.013129385 0.012629239 0.013133498 0.011609416 -0.023501795 0.01105293 -0.011924976
-0.017055327 0.00028458578
00000000: ab05 9cba a21c 57bc deea 4e3c e22d 573c
00000010: 6c35 3e3c d686 c0bc 5917 353c f960 43bc
00000020: 9db7 8bbc 7534 9539
